lstm_model.pth (torch, 212469 bytes, 10 tensors)

lstm.weight_ih_l0 f4 [256, 6]
000000 c4 ed 9b bd e0 5c 43 bc 32 4c da bd 80 57 49 3c
       -0.076137096 -0.011923999 -0.10659064 0.012288928
000010 e0 2d cb 3d 98 f4 94 3c e4 00 de bd 8a 83 80 bd
       0.09920859 0.018183038 -0.108400136 -0.06275089
000020 be 48 dd bd 5a 7d c7 bd 78 9a f3 bc 68 c4 58 3d
       -0.1080489 -0.09740706 -0.029736742 0.052921683
000030 40 24 6b 3b 08 61 db bc 00 91 c3 bc 10 39 09 3c
       0.003587976 -0.026779667 -0.023872852 0.008375421
000040 a0 8e b2 3d 6a f0 c9 3d ca 74 ef 3d 54 81 8f 3d
       0.0871861 0.098603085 0.116921976 0.07007089
000050 e6 3a f9 3d bc 21 67 bd 00 86 0c ba 00 c3 38 3c
       0.12169437 -0.056428656 -0.0005360544 0.01127696
000060 58 e1 bc bd 56 f9 a3 bd 82 8e b5 3d 74 3e e9 bd
       -0.092226684 -0.080065414 0.08865072 -0.11388865
000070 92 0a e6 3d d8 d6 23 3d 7c 68 a8 3d 88 86 ed 3c
       0.11232485 0.039999813 0.08223054 0.028994814
000080 08 27 62 3d f0 c4 7c bc a4 3e 13 3d 38 29 b6 3c
       0.055213004 -0.015427813 0.03594841 0.022236452
000090 58 c3 70 bd 80 ca 65 3c 04 36 af 3d 02 ba 89 3d
       -0.058780044 0.014025331 0.085552245 0.06724931
0000a0 c0 90 3e 3d aa ba eb bd 98 af 75 bd 08 24 ca bd
       0.046524763 -0.11510213 -0.059981912 -0.09870154
0000b0 dc 98 52 bd 80 98 ec 3a 4c 71 7b 3d 4c dd 2a 3d
       -0.05141531 0.001805082 0.061387345 0.04171495
0000c0 48 c2 a0 bd 60 1d 94 3d a6 28 98 bd 00 86 fe 3b
       -0.07849556 0.07232165 -0.07429628 0.007767439
0000d0 04 50 22 bd 90 21 75 3c 54 89 a6 bd 60 59 26 3d
       -0.03962709 0.014961615 -0.08131662 0.04061258
0000e0 c6 62 e5 bd 3e 70 bd bd 8e 7f d9 bd 28 b0 9a 3c
       -0.1120048 -0.09249924 -0.10620032 0.018882826
0000f0 44 f2 b4 3d 04 6a b7 bd 80 5d 64 bb 50 5c fe 3d
       0.08835271 -0.08955768 -0.003484577 0.12419951
000100 d0 5e a0 3d c4 56 97 3d a4 44 21 3d 6a 5a ab bd
       0.07830584 0.07389596 0.0393721 -0.083668545
000110 00 61 20 3a 08 59 a6 3d 18 c2 98 bc 70 36 3f bc
       0.000611797 0.0812245 -0.018647239 -0.011670694
000120 c6 78 9b 3d cc c5 a5 bd b0 cf b6 3d d4 9b 4b 3d
       0.07591395 -0.080943674 0.08926332 0.049709156
000130 da 9c c2 3d 60 52 1a bd bc 12 17 bd d8 c6 8e 3d
       0.09502573 -0.037676215 -0.0368831 0.0697152
000140 28 33 0b 3d a6 47 e0 3d 00 5f 32 3b 68 ef d1 3d
       0.033984333 0.10951166 0.002721727 0.10250741
000150 ec 26 71 bd 24 df 0b bd b8 00 e8 3c 4c 0f 20 3d
       -0.05887501 -0.03414835 0.028320655 0.03907709
000160 2c 11 83 3d 80 c5 f4 3c e0 77 ae 3d 16 5d 86 3d
       0.0639976 0.029879332 0.08518958 0.065607235
000170 20 39 0d bc a0 82 d2 3b 74 51 23 bd 30 2a ae 3c
       -0.008619577 0.006424263 -0.0398726 0.021260351
000180 9a 5e c5 bd e0 f0 f4 3c 80 70 e8 bc a0 35 a2 3b
       -0.096371844 0.029900014 -0.028373957 0.0049502403
000190 78 f5 2a 3d 54 03 2e bd 80 87 2e 3c 12 18 e9 3d
       0.041738003 -0.042483643 0.010652423 0.11381544
0001a0 4c c4 d1 bd d0 91 d6 3d e4 35 6d bd f0 69 67 3d
       -0.10242519 0.1047703 -0.057912722 0.056497514
0001b0 10 5b 8c 3c 62 fc c7 bd 38 3c ba bd 0c 18 32 bd
       0.017133266 -0.09764935 -0.09093517 -0.043479964
0001c0 28 b3 fa bd c8 df 83 3d 30 27 15 bc 94 ef d1 3d
       -0.122412026 0.06439167 -0.009103581 0.10250774
0001d0 3c ed d3 3d 80 82 c4 bc 32 75 da bd e0 b1 ba 3b
       0.10347983 -0.023988008 -0.106668845 0.005697474
0001e0 bc 79 35 3d 4a 00 a4 3d ec 44 9c bd ba 4b d8 3d
       0.044305548 0.08007868 -0.07630333 0.10561319
0001f0 ae 7c 9b bd dc a4 9e 3d 50 8e a4 bc 6c e2 3f 3d
       -0.0759214 0.07746288 -0.020087391 0.046846792
000200 e4 d4 02 3d f0 35 27 bc 84 de bb bd 8c 6d f9 bd
       0.03194131 -0.010205731 -0.09173301 -0.121790975
000210 bc a6 b7 3d 28 c4 ce 3d 00 8f b6 bc a8 1d b2 bc
       0.08967349 0.100960076 -0.022284985 -0.021742657
000220 88 85 2b 3d 00 72 c7 3a 4a 19 a0 bd 50 a2 11 3d
       0.041875392 0.001521647 -0.078173235 0.035555184
000230 30 dd c4 bd 84 6b 9c 3d e8 f7 71 bd 70 1b de 3d
       -0.09612501 0.076376945 -0.059074312 0.10845077
000240 90 78 e0 bd fa 1c c6 bd a0 82 c5 3d 70 d5 39 bc
       -0.109604955 -0.096734956 0.09644055 -0.011342391
000250 a2 40 b4 bd 08 41 ac bd 24 91 dd bd f4 22 80 3d
       -0.0880139 -0.08410841 -0.10818699 0.06256667
000260 b8 b3 de 3c 16 2e a1 bd 70 06 52 3c 24 9f 56 3d
       0.027185306 -0.07870118 0.012818918 0.052397862
000270 ac 15 4b bd 10 19 02 3c a0 a9 f8 bc 28 77 c9 3d
       -0.049581215 0.007940546 -0.030354321 0.098371804
000280 c2 2e 98 bd 20 00 e8 bc 88 f2 b1 bc a0 07 53 3c
       -0.07430793 -0.028320372 -0.021722093 0.012880236
000290 fa 55 9a bd 80 75 f1 ba 30 73 28 bc e8 c4 05 3d
       -0.0753593 -0.0018421859 -0.010281369 0.032658488
0002a0 68 6e db bc d0 9b 8c bd 24 83 43 3d 42 7e b0 bd
       -0.026786044 -0.068656564 0.047732487 -0.08617832
0002b0 74 64 cf 3d 80 0d 8b 3a d6 9c 81 bd d0 f8 6b bc
       0.10126582 0.0010608882 -0.06328742 -0.014402583
0002c0 00 f5 c7 bc b6 dc fe bd 40 4d 05 3d 8c 7e c7 3d
       -0.024408817 -0.12444441 0.032544374 0.09740934
0002d0 78 36 f2 bd 88 b6 fb 3c f6 d3 fd bd e0 7b 8b 3d
       -0.11826795 0.030726686 -0.12393944 0.06810737
0002e0 84 26 d7 3d 2e 08 f8 3d 42 20 c4 bd 5c a1 23 3d
       0.10505393 0.12110935 -0.09576465 0.039948806
0002f0 a8 67 b9 bc ec 86 58 bd 4e f9 fc 3d 64 e5 af bd
       -0.022632435 -0.052863047 0.123522386 -0.08588675
000300 30 b8 ae 3c f0 21 e7 bc 98 2e 38 bd 6c c8 ab 3d
       0.021328062 -0.028214425 -0.04496631 0.08387837
000310 98 9b f8 3d 90 ec 9b 3d 3c 31 29 3d 64 bc 7e bd
       0.12139052 0.0761348 0.04130672 -0.062191382
000320 78 f9 8c 3c 98 54 b4 bd b6 16 9e bd d8 3f fc bc
       0.0172088 -0.088051975 -0.077191755 -0.030792162
000330 f6 14 ba bd 24 9e ae bd 3c c2 2b 3d b0 e1 5e 3d
       -0.09086029 -0.08526257 0.041933283 0.05441445
000340 cc 09 3f bd 88 20 e5 3c c2 25 9c 3d 88 71 37 bd
       -0.046640202 0.027969614 0.07624389 -0.044786006
000350 d8 a1 33 bd 44 fe a6 bd e6 25 dc bd f0 1a 26 3c
       -0.043855518 -0.08153966 -0.10749416 0.010138258
000360 70 cc a9 3d 50 a1 7f 3d 00 cb 43 bb 74 a2 15 3d
       0.082909465 0.0624097 -0.0029875636 0.03653188
000370 1a 30 c9 bd 28 95 cf 3d 3c 61 55 3d 9c 7a a2 bd
       -0.09823628 0.10135871 0.052094683 -0.07933542
000380 8c 37 8c 3d d0 1d 62 3d c0 7c 58 bc 68 87 44 bd
       0.06846532 0.055204213 -0.0132133365 -0.047980696
000390 a0 1a 2d bc 4e 18 e8 3d 10 81 49 bd 40 7d ec 3b
       -0.01056543 0.11332761 -0.04919535 0.0072170794
0003a0 24 ba 03 3d c0 01 ff 3d e8 ca c4 bd e8 35 9b 3d
       0.03215994 0.12451506 -0.09609014 0.07578641
0003b0 06 28 cc bd 3e b9 83 bd 98 0d 7a bd 00 23 14 3d
       -0.09968571 -0.064318165 -0.06104812 0.03616619
0003c0 58 72 de bd 6e c2 8c bd e0 f8 4e 3d 20 d5 b5 bb
       -0.10861653 -0.06873022 0.050530314 -0.005549088
0003d0 10 c0 82 bd 36 11 84 3d 8c a7 43 3d 38 a4 a6 bc
       -0.06384289 0.06448595 0.047767207 -0.020341977
0003e0 a0 b6 b2 bd b8 79 59 bd 30 b7 45 3c 9c ff fa 3d
       -0.08726239 -0.053094596 0.012067601 0.12255785
0003f0 e8 4b b7 3c e0 b0 e1 bd 00 05 6b bb 66 45 80 bd
       0.022375062 -0.11020064 -0.0035861135 -0.06263237

lstm.weight_hh_l0 f4 [256, 64]
000000 34 c4 76 3d 2a c0 d5 3d 14 6e 27 bd b8 69 81 bc
       0.060245708 0.10437043 -0.040876463 -0.015797481
000010 18 e6 08 3d 58 6f 77 bd ea b8 ea bd 5a dd a4 3d
       0.03342256 -0.06040892 -0.11461051 0.08050032
000020 0a cb e8 3d 2a 8c e3 3d 50 8a 29 bd 88 04 9f bd
       0.11366852 0.111107185 -0.04139167 -0.07764536
000030 10 27 e6 3c be 63 b4 3d c8 1f f4 3c 94 0b d3 3d
       0.028094798 0.08808087 0.02980031 0.10304943
000040 8c d8 ae bd 90 35 9c bc 16 3f f2 3d ac 3c 21 3d
       -0.08537397 -0.01906851 0.11828439 0.0393645
000050 a0 8a 4c 3d 88 10 89 bc 00 89 9b ba e4 91 cd bd
       0.04993689 -0.016731516 -0.0011866391 -0.10037592
000060 b4 e1 43 bd 2a db a4 bd fa 2d b3 3d 22 45 9e bd
       -0.04782267 -0.08049615 0.08749004 -0.0772803
000070 00 af de bd 38 a5 ae 3d e0 06 18 3d 86 44 d6 bd
       -0.10873222 0.08527607 0.03711593 -0.104622886
000080 f0 41 d8 3d 60 9a f1 bb 20 83 30 3c fe 5a d1 bd
       0.105594516 -0.0073731393 0.01077345 -0.102224335
000090 2e d4 f6 bd 8c e8 f8 3d 04 ad 29 bd 48 32 bb bd
       -0.12052189 0.1215373 -0.041424766 -0.0914045
0000a0 90 0d ec 3d 98 81 eb bc 2c 70 d3 bd b2 90 f7 bd
       0.11526024 -0.028748319 -0.103241295 -0.12088145
0000b0 38 76 3a 3d d4 fb 19 bd 68 d2 92 bc 60 a6 fa bd
       0.0455229 -0.037593678 -0.017922595 -0.12238765
0000c0 06 78 ad 3d 02 f6 aa 3d a0 29 be bc 44 90 11 3d
       0.08470158 0.083477035 -0.023213208 0.035537973
0000d0 58 87 b0 3d c0 df 02 3d ec 33 3b bd 82 8f 9b bd
       0.08619565 0.031951666 -0.045703813 -0.07595731
0000e0 8e b3 a9 3d d6 34 fb 3d 6c 2a 8b 3d 26 0f d1 bd
       0.082862005 0.12265937 0.06795201 -0.102079675
0000f0 a6 a4 8b bd f6 3c d5 3d fa d9 a4 3d 38 9f a2 3c
       -0.068185136 0.10412018 0.08049388 0.019851312
000100 7e 42 d9 3d 94 96 89 bd fe 4b fa bd 80 98 a8 ba
       0.106083855 -0.067181736 -0.122215256 -0.0012862831
000110 90 da 71 3d f4 89 f5 3d 7c 61 00 bd 78 ea 80 3d
       0.059046328 0.11989203 -0.03134297 0.06294721
000120 58 0c 8c 3d f0 02 bc 3c 70 d1 77 bd 5e 0e 97 3d
       0.06838292 0.02295062 -0.06050247 0.07375787
000130 f0 d2 6c bc f8 e5 d2 bd 1c cb 6d bd 5c 04 e1 3d
       -0.014454588 -0.10297769 -0.05805503 0.109871596
000140 b0 13 33 bc 20 49 3f bc 48 7a f3 3c 64 82 df bd
       -0.010929987 -0.011675149 0.029721394 -0.10913542
000150 42 cf b3 3d 70 7c ff 3c 02 b3 d1 bd 00 17 2c bc
       0.08779766 0.031187266 -0.10239221 -0.0105035305
000160 c8 c7 b5 bd 80 40 7c bd 7e a8 9d 3d 30 55 40 bd
       -0.08875996 -0.06158495 0.07698153 -0.04695624
000170 a6 02 a5 3d ec 48 16 3d be 8b 83 bd 38 39 73 bd
       0.08057146 0.036690637 -0.06423138 -0.05938074
000180 88 35 fb bc d0 8f 10 bd b4 a7 31 3d 30 10 50 bd
       -0.030665174 -0.0352934 0.043372825 -0.050796688
000190 cc 57 35 3d 2c 4f e5 3d 4e 38 db 3d 5c a7 f9 3d
       0.044273183 0.111967415 0.10704099 0.121901244
0001a0 00 6b 78 3c c0 46 8e bb 6c 9d a6 bd bc 44 19 3d
       0.01516223 -0.00434193 -0.081354946 0.037419066
0001b0 30 76 43 bd 04 4c 16 bd 22 78 9b bd 88 3c df bc
       -0.047720134 -0.036693588 -0.07591273 -0.027250543
0001c0 66 fa af 3d 0e 53 d9 3d 56 7a c7 3d 20 86 cf 3b
       0.085926816 0.106115445 0.097401306 0.0063331276
0001d0 50 60 a8 3c 38 88 8a bd 80 81 66 3c 80 15 e8 bb
       0.020553738 -0.06764263 0.014068961 -0.007082641
0001e0 c0 f7 40 3c e4 75 c4 bd f0 26 b0 3c 28 a0 96 3c
       0.011777818 -0.09592798 0.021502942 0.018386915
0001f0 e0 e4 b9 3d f8 c5 7b bd b8 b1 15 bd a8 72 24 3d
       0.090768576 -0.061468095 -0.03654644 0.040148407
000200 cc 7b 06 bd 50 8f 0e bd 30 b7 ad bc a0 a2 36 bd
       -0.032832906 -0.034804642 -0.021205515 -0.044588685
000210 f0 26 e1 bd f6 49 a8 3d e6 66 a1 3d 70 81 0e 3d
       -0.10993755 0.08217232 0.078809544 0.03479141
000220 e0 d1 85 3c 00 d1 bb bb c6 e3 8c 3d b0 e5 51 3c
       0.016335428 -0.005731702 0.06879382 0.012811109
000230 7c fe 0b bd 8e 16 df 3d e4 5c 54 3d 02 eb e8 3d
       -0.034178242 0.10892974 0.0518464 0.11372949
000240 b8 be a7 3d f8 ac 3d 3d 40 4f 30 bd fa 20 f4 3d
       0.081906736 0.046307534 -0.04304433 0.11920352
000250 6a 20 ac bd 58 c0 c4 bd 8c b2 d8 bd a0 d2 e0 bb
       -0.0840462 -0.09606999 -0.1058093 -0.006861046
000260 68 15 a2 bd c6 fb d7 3d b0 a3 75 3d a0 32 bf 3c
       -0.07914239 0.10546069 0.059970558 0.02333957
000270 dc 26 09 bd 12 7c b1 3d 80 22 c5 bd b8 f2 81 3d
       -0.033484325 0.08666243 -0.09625721 0.06345123
000280 ee e0 b5 3d 30 8f f6 3c 5e d8 8e 3d 00 e6 92 3b
       0.088807926 0.030097574 0.069748625 0.0044829845
000290 50 4e 02 3d 80 ec a8 3d e2 0d ba bd a6 c4 95 bd
       0.031812966 0.08248234 -0.09084679 -0.07312898
0002a0 a8 50 b4 bc 3c cc d8 3d a0 d8 84 3c c8 8e 66 bd
       -0.022011116 0.105858296 0.016216576 -0.05628851
0002b0 c0 f4 61 3b 9c 70 d7 bd ea c7 c5 bd 90 71 68 bc
       0.0034478158 -0.105195254 -0.09657271 -0.014187232
0002c0 60 cd 01 bd 1e e8 ce 3d 60 f4 7b bc 74 90 ff bd
       -0.03169 0.101028666 -0.015378088 -0.12478724
0002d0 48 e1 7e 3d ae e5 86 bd 68 55 ca 3c 40 7c 38 bd
       0.062226564 -0.06586777 0.024698928 -0.04504037
0002e0 18 fb 90 bd 64 21 34 3d b6 ea c5 bd 68 58 a0 3d
       -0.07079142 0.043977156 -0.09663908 0.07829362
0002f0 b0 8a 39 bc c0 6f da bc d8 10 86 3d c4 e4 12 3d
       -0.01132457 -0.026664615 0.065461814 0.0358627
000300 b0 9f 51 3d a0 f3 03 3c 98 57 ec bd ec c1 5c bd
       0.05117768 0.00805369 -0.11540145 -0.053895876
000310 d0 f9 16 bd 4c 91 47 bd 10 ae 7c bc 48 20 fa 3c
       -0.036859334 -0.04872255 -0.015422359 0.030532971
000320 a4 2f e5 3d 20 63 5c bc a8 73 b5 3d 90 72 d2 bd
       0.11190727 -0.013451368 0.0885995 -0.10275757
000330 22 57 f9 3d 54 e1 23 bd b4 4e f6 bd a4 4a bd bd
       0.121748224 -0.04000981 -0.1202673 -0.09242752
000340 5a 94 ae 3d 14 2d ee 3d c4 28 6e bd a0 cb ad bc
       0.085243896 0.11629692 -0.058144346 -0.02121526
000350 70 2a a5 bc 62 4a 91 bd 70 0a 70 bd 84 96 d6 bd
       -0.020161837 -0.070942655 -0.058603704 -0.10477927
000360 20 07 b8 3c 78 6f de 3c 10 e9 b8 bd c0 39 7a 3b
       0.022464335 0.027152762 -0.09028828 0.0038181394
000370 8c 76 91 bd e0 b5 24 bd ba 53 f2 3d 60 91 a4 bd
       -0.07102689 -0.040212512 0.11832376 -0.080355406
000380 9c 3b 1c 3d 00 8b fb bd 56 95 87 3d ea 13 85 bd
       0.038142785 -0.122823715 0.066202804 -0.06497939
000390 ba e4 89 bd a0 c4 83 bd bc 47 3e 3d 7e bb 98 bd
       -0.06733079 -0.064339876 0.04645513 -0.07457636
0003a0 cc 7b bc bd b0 83 7d bc 80 0b 50 bb a6 b8 b9 3d
       -0.092033 -0.015473291 -0.0031745136 0.09068422
0003b0 ea f3 f6 3d 20 1e f5 3c 02 ac 93 3d 46 84 86 3d
       0.12058242 0.029921591 0.07210542 0.06568198
0003c0 36 70 c9 3d e0 ba cc bb 44 2b 6a 3d 60 14 b3 3b
       0.09835856 -0.006247863 0.057170168 0.0054650754
0003d0 0e 20 e6 bd 5a 74 94 bd fe 60 ff bd e0 b3 b1 bb
       -0.11236583 -0.07248755 -0.12469672 -0.005423054
0003e0 88 fb 1f 3d 30 2a 89 bd 6e 5d f7 3d cc b8 21 3d
       0.03905824 -0.066975 0.12078367 0.039482877
0003f0 90 4d 2a 3c e0 f9 17 bd 8c 6b 41 bd 38 b5 0d 3d
       0.010394469 -0.037103534 -0.047221705 0.03459665

lstm.bias_ih_l0 f4 [256]
000000 9a 60 8b 3d 9c d6 18 3d 00 3a bf 3b d4 d8 33 bd
       0.06805535 0.037314042 0.0058357716 -0.043907955
000010 60 31 5c bc 74 51 bd bd ae 07 a9 3d 40 3a f2 3c
       -0.013439506 -0.092440516 0.08253418 0.029568791
000020 58 d1 a4 bd 04 c7 98 3d 50 1b 71 3c 48 58 8b bd
       -0.08047742 0.07459834 0.014715984 -0.06803948
000030 58 8a 29 bd c4 9c c3 bd 80 3a 02 3b ba 43 86 bd
       -0.0413917 -0.09551385 0.0019871294 -0.065558866
000040 68 a5 c1 3c 66 87 da bd 9c 51 36 bd d0 8d fc bd
       0.023638442 -0.106703565 -0.044511423 -0.12331736
000050 20 d3 c7 bb a8 c5 2a bd 32 ac a9 bd 80 68 82 3c
       -0.006098166 -0.041692406 -0.08284797 0.01591897
000060 5a 55 ce bd 80 82 8d 3a 02 cc e0 3d 1c f6 68 bd
       -0.10074873 0.0010796338 0.109764114 -0.056875333
000070 d8 10 e7 3c 0a 74 fe bd 60 5d a2 3d e4 5d 50 3d
       0.028206274 -0.124244764 0.07927966 0.05087079
000080 32 71 d7 3d a0 1e 3c bc 20 d0 4d 3d a8 1c 2b 3d
       0.10519637 -0.011481911 0.05024731 0.041775376
000090 46 75 f4 bd 48 a0 28 bd ae fc 8b 3d 50 af 28 bd
       -0.11936431 -0.04116848 0.06835304 -0.041182816
0000a0 1c b5 23 bd 86 35 83 3d 80 a1 d9 bc 60 f9 bc 3d
       -0.03996764 0.06406693 -0.026566267 0.09227252
0000b0 be 7f 8b 3d 00 42 41 3c 5c 90 f6 3d be 3b ec 3d
       0.06811474 0.011795521 0.12039253 0.115348324
0000c0 a2 43 dd 3d 02 53 f3 3d 80 6f 7f 3d 36 dd 84 bd
       0.108039156 0.11881067 0.062362194 -0.06487505
0000d0 b0 22 23 3c 60 45 2a bd 40 1f a0 bd 26 89 dd bd
       0.009957001 -0.041570067 -0.078184605 -0.108171746
0000e0 04 ee 69 bd 80 1e d0 ba fa 2d 8c 3d 40 ca 76 bc
       -0.057111755 -0.001587823 0.06844707 -0.015062869
0000f0 f2 f8 f9 3d 34 60 43 3d 20 76 71 3c 74 57 84 bd
       0.12205686 0.04769917 0.014737636 -0.06461993
000100 0a 48 f7 3d 60 d8 ea bd 56 dd f6 bd d6 c6 ae bd
       0.12074287 -0.114670515 -0.12053935 -0.08534019
000110 ac 44 11 3d d0 61 7b bc dc 11 e7 bd 74 54 86 bd
       0.03546588 -0.015343145 -0.11282703 -0.06559077
000120 80 9e 04 bb be a6 a3 bd 90 61 e5 bc 20 f9 bd 3c
       -0.0020236075 -0.07990788 -0.028000623 0.023190081
000130 d2 26 80 bd 80 cc 26 3c 74 7e 42 3d a0 48 d0 bb
       -0.062574044 0.010180593 0.047483876 -0.006356314
000140 40 a1 b8 3c 0c 4a 99 3d b2 6c f3 3d 70 bf 6a bc
       0.022537827 0.074848264 0.11885966 -0.014327869
000150 80 f5 10 3b 90 d5 02 3d 78 48 b1 3d da 6e f8 3d
       0.0022118986 0.03194195 0.086564004 0.12130518
000160 40 b8 cc bc 5a 8f e4 3d d8 72 8e 3d 04 ea 42 3d
       -0.024990201 0.11160155 0.069554985 0.047586456
000170 34 06 3d 3d 30 8f 79 3d 88 1d 05 3d f4 76 2d bd
       0.046148494 0.06092757 0.032498866 -0.04234977
000180 aa b5 99 bd b4 99 68 3d 2c 54 86 bd 4e 1b e9 3d
       -0.07505353 0.056787208 -0.06559023 0.11382161
000190 18 60 25 3d 48 ef d9 3c 3e aa ad 3d 9e 43 f9 bd
       0.040374845 0.026603356 0.08479737 -0.121711
0001a0 24 6e 85 bd 2a c2 d8 3d e4 bd 05 bd 7c a9 c1 bd
       -0.06515148 0.10583909 -0.032651797 -0.09456155
0001b0 96 b2 ac 3d fc 3c 52 bd 7c 30 1a bd e2 1b dd bd
       0.084325 -0.05132769 -0.037643895 -0.10796334
0001c0 a0 ca 47 bd 34 dd 54 bd 90 ec b5 3c 20 1a c3 3d
       -0.048777223 -0.05196877 0.022207528 0.09526467
0001d0 c0 07 be bb 5c ee 5e 3d c0 fd 7b 3b f8 56 13 bd
       -0.0057992637 0.054426536 0.0038450807 -0.03597161
0001e0 9c 8f 7f bd b0 40 74 3d 10 a8 a3 bd 68 0a 4e bd
       -0.062392816 0.059632003 -0.0799104 -0.050302893
0001f0 c2 e5 e8 3d 6e 47 a8 bd a0 8c 2d bd 24 af 59 bd
       0.11371948 -0.08216749 -0.04237044 -0.053145543
000200 12 56 c2 3d 70 04 22 bc f0 65 6d bc 40 8d da bc
       0.09489073 -0.009888753 -0.014489636 -0.026678681
000210 0c 93 06 bd 80 3b e1 bc e0 e2 9c 3d d6 53 bc bd
       -0.03285508 -0.027494192 0.076604605 -0.09195678
000220 ce f4 8d bd 9c 93 1e bd b4 9d b1 bd 5e 8a b9 bd
       -0.069314584 -0.03871499 -0.086726576 -0.090595946
000230 36 20 cc 3d 04 51 33 bd 68 0d e5 3d f8 5c bb bd
       0.09967081 -0.043778434 0.11184198 -0.09148592
000240 6e 5d a6 3d c8 d2 37 bd 5c 25 6b bd a2 48 ce 3d
       0.08123289 -0.04487875 -0.057408676 0.10072447
000250 4e f4 cb 3d ba 0c d0 3d 1c 31 79 bd 68 a3 84 bc
       0.09958707 0.101586774 -0.06083785 -0.0161912
000260 c2 da be 3d a4 a9 b1 3d 28 83 17 bd 20 af 43 bc
       0.093190685 0.086749345 -0.036990315 -0.0119436085
000270 36 1d d8 3d 7e 13 d9 bd 44 86 71 3d 70 3b 05 3c
       0.105524465 -0.10599421 0.058965936 0.008131847
000280 60 7f f8 bd de d1 e8 3d d0 35 52 3c b8 9a e8 3c
       -0.1213367 0.11368154 0.012830213 0.028394088
000290 90 9e a4 3d 84 28 ac 3d 88 fb b7 bd 7e 50 93 3d
       0.08038056 0.08406165 -0.08983523 0.07193087
0002a0 c4 e8 27 3d a2 70 ac 3d cc a1 ec bd 08 d6 f9 bc
       0.040993467 0.084199205 -0.11554298 -0.030497566
0002b0 a8 9d e0 bd da 76 ff 3d 64 a3 f9 bd 32 7a d1 bd
       -0.109675705 0.12473841 -0.121893674 -0.10228385
0002c0 7c 21 a4 bd f4 18 62 bd d8 ba 17 bd d2 2f ef 3d
       -0.08014199 -0.05519958 -0.037043422 0.11679043
0002d0 90 2d 1b bc 28 5e 4d bd 74 10 a7 3d 28 2b 15 3d
       -0.009471312 -0.050138623 0.08157435 0.03641811
0002e0 20 a1 cf bb c0 0c 10 bb d4 c3 23 3d 70 05 f0 3c
       -0.0063363463 -0.0021980256 0.039981678 0.029299468
0002f0 10 b4 fa bd 4e f6 d7 bd 38 85 bf 3d 28 ea 1d 3d
       -0.122413754 -0.10545026 0.09351581 0.038553387
000300 f0 1d c7 bc 56 56 e8 3d d8 56 c1 3c 62 0c e4 3d
       -0.024306267 0.11344592 0.02360098 0.11135174
000310 ce 28 8e 3d 10 20 48 bc 00 5c 1c 3a fa 78 92 3d
       0.069413766 -0.012214676 0.0005964637 0.07151981
000320 f2 0d a8 3d 40 5d 95 3c b6 de d7 bd d4 78 04 bd
       0.08205785 0.018232942 -0.105405256 -0.032341793
000330 2a c3 cd 3d 50 1b 4b 3d 74 1b 79 bd 74 f2 a3 3d
       0.1004699 0.049586594 -0.060817197 0.08005229
000340 e4 da 15 bd a8 e7 cc bd 74 52 d7 3d 48 95 0f bd
       -0.036585703 -0.100051224 0.105137736 -0.035054475
000350 40 86 d1 bc 32 c4 8c 3d 50 5b 5d 3d b0 5f 57 3d
       -0.02557671 0.06873359 0.05404216 0.05258149
000360 48 83 87 bd 9a 61 e9 bd c4 95 38 3d 00 c4 1c b9
       -0.06616837 -0.11395569 0.045064703 -0.00014950335
000370 88 b4 b2 3c 00 ce 03 ba ec 91 1d 3d e4 0b 81 bd
       0.0218146 -0.000502795 0.03846924 -0.06301096
000380 04 9b 68 bd 24 37 91 3d d2 46 86 bd b4 61 d0 3d
       -0.05678846 0.07090595 -0.06556477 0.101748854
000390 80 e6 bd ba 90 da 97 bd d0 31 ab 3c c0 cd 9f 3d
       -0.001448825 -0.07414734 0.020897776 0.078029156
0003a0 06 8f 9a 3d 40 4e 9b 3d c0 cd 44 3b e0 2c c7 bd
       0.07546811 0.075832844 0.0030029863 -0.09725356
0003b0 e0 9d cd bc 4c 30 fc bd 48 b8 e9 bd 48 f0 31 3d
       -0.025099695 -0.123138994 -0.11412102 0.04344204
0003c0 a0 59 49 3d 9e 5a b9 3d 74 c0 11 bd c0 a8 d3 bd
       0.04915774 0.09050487 -0.03558393 -0.10334921
0003d0 62 b9 d7 bd d0 e8 dc 3d 38 e1 73 bd 2c e7 b4 3d
       -0.10533406 0.10786593 -0.059540957 0.08833155
0003e0 e0 9c 0a 3d 90 f0 bf bd 44 7e 61 bd d8 5b 83 bc
       0.033841014 -0.093720555 -0.055052057 -0.016035005
0003f0 b0 98 d6 3d 40 1f c1 bc e0 d5 76 bc b2 93 e3 bd
       0.104783416 -0.023574471 -0.01506564 -0.11112155

lstm.bias_hh_l0 f4 [256]
000000 8c a2 31 3d 24 55 90 bd ca c1 98 bd 62 2d 89 3d
       0.043367907 -0.07047489 -0.07458837 0.06698109
000010 da c2 f7 3d 00 c4 09 bb 10 7d d5 bc 62 8b e5 bd
       0.12097712 -0.0021021366 -0.026060611 -0.11208226
000020 f8 6e d5 bd 20 09 ca bd 2a 32 a4 3d 20 b7 a5 3c
       -0.10421556 -0.09865022 0.080173805 0.020228922
000030 48 05 ec 3c 6c 22 c5 bd 1c 06 37 bd 74 15 57 3d
       0.028811112 -0.09625706 -0.04468356 0.052510694
000040 92 5a c8 bd 1e 85 e1 3d 3c b9 af 3d bc 56 74 bd
       -0.097829 0.11011718 0.085802525 -0.05965303
000050 80 22 4a 3d a4 1f 0d 3d 40 01 dd 3c a0 1b fc bb
       0.049349308 0.034454003 0.026978135 -0.007693723
000060 8c e7 a2 bd 20 c8 3f bc 00 02 2f bb 90 49 48 3c
       -0.0795432 -0.011705428 -0.0026704073 0.01222457
000070 28 1d 94 3d ba 88 eb 3d ac b8 b5 bd 78 55 de 3d
       0.072321236 0.11500688 -0.08873114 0.108561456
000080 62 cc b6 bd 80 25 50 3b f0 f2 09 bd 20 d4 3d 3c
       -0.08925702 0.0031760633 -0.03367895 0.011586219
000090 50 92 8c 3d 7e c5 c6 3d 96 0f 8f 3d ea be a4 3d
       0.068638444 0.097056374 0.06985395 0.080442265
0000a0 94 d0 69 bd 0e 99 c5 3d 98 09 f7 bd 74 c6 96 3d
       -0.05708368 0.096483335 -0.12062377 0.07362071
0000b0 4a 61 f5 3d 40 3e 39 3b 62 01 bd bd 28 17 1b bd
       0.11981447 0.0028265864 -0.092287794 -0.03786388
0000c0 58 a0 88 bc 30 f8 a1 bc ec fb 7e bd 98 3c fe 3d
       -0.01667802 -0.019771665 -0.06225197 0.12413901
0000d0 68 35 b4 3c f8 20 c2 bc c8 32 d8 3d 08 e0 b4 3c
       0.021998122 -0.023697361 0.10556561 0.022079483
0000e0 98 e6 a6 bc 64 97 b0 3d a0 31 a3 bd 50 eb 7b 3d
       -0.020373628 0.086226255 -0.079684496 0.06150371
0000f0 84 72 9d bd 2c 83 df 3d 4e d5 92 bd 00 61 ae 3a
       -0.07687858 0.10913691 -0.07169591 0.0013304055
000100 40 29 10 bd c0 4e fc 3d c6 b9 e2 bd a0 0c 2e 3c
       -0.03519559 0.12319708 -0.1107059 0.010623127
000110 9c e9 87 3d d0 5a 34 bd 1c 0d 77 bd d6 6a 85 3d
       0.06636354 -0.044031918 -0.060315236 0.06514518
000120 08 54 ca bd 62 a3 e6 3d 20 5e 41 bc 52 bc db bd
       -0.09879309 0.112616315 -0.011802226 -0.107292786
000130 f6 ec e9 bd c8 aa 89 3c 98 a2 76 bd 7a 69 e3 bd
       -0.1142215 0.016805068 -0.060213655 -0.111041024
000140 2e 94 bf bd 60 71 83 bb 50 f0 0c 3c e0 1f 3d bd
       -0.09354435 -0.004011318 0.008602217 -0.046172976
000150 3c f8 11 3d 30 d4 46 bd 40 7e a4 3d c2 e6 86 bd
       0.035637125 -0.0485422 0.08031893 -0.06586982
000160 98 ef 16 3d 50 45 98 3d b8 a7 93 3d a0 42 9d bd
       0.03684959 0.07435095 0.07209724 -0.07678723
000170 a8 48 44 3d 08 ba ea 3d 5a 44 b3 3d c6 9b df bd
       0.047920853 0.11461264 0.087532714 -0.10918383
000180 2c 1a 78 bd 30 13 9b 3c d0 17 2d 3d 8c 10 f2 3d
       -0.060571834 0.018930048 0.042259037 0.11819562
000190 40 9a a4 3b a8 3e 94 bc 9c b1 31 bd 9e d1 b2 3d
       0.005023271 -0.018096283 -0.043382272 0.087313876
0001a0 88 eb 9e bc ca 88 bb 3d 0e 25 e0 bd b6 42 ad 3d
       -0.01939942 0.0915695 -0.109445676 0.0845999
0001b0 dc d4 ca bd c0 c5 15 bc 06 f4 9e bd 10 19 f8 3c
       -0.09903881 -0.009141386 -0.077613875 0.030285388
0001c0 38 d0 a3 bc d8 3a 9b 3c d4 f0 3e bd 00 e4 53 3d
       -0.019996747 0.018948957 -0.04661639 0.05173111
0001d0 06 2a fa 3d 50 2d 4c 3d 60 af 89 3b 9e 4f e5 3d
       0.122150466 0.0498479 0.0042018145 0.111968264
0001e0 70 c1 d4 bd 88 ed e5 3d d0 d5 29 3c d0 c9 a3 bd
       -0.10388458 0.11226946 0.010365918 -0.07997477
0001f0 d8 9f af 3d 10 20 36 3c bc 78 6d bd 28 9f 03 3d
       0.0857541 0.011116043 -0.05797647 0.032134205
000200 a0 81 c8 3d bc 09 ea bd 80 9a 26 3b 98 a4 af bd
       0.09790349 -0.11427638 0.002542168 -0.08576316
000210 48 77 02 bd 40 2a 65 bb 50 b8 92 bd 78 2c ad 3c
       -0.031852037 -0.003496781 -0.07164061 0.021139368
000220 3a fd db bd f0 5d 8f 3d 40 85 c5 bd da a3 8f bd
       -0.107416585 0.07000339 -0.09644556 -0.07013674
000230 60 6e cf bb 00 e8 b1 b8 de d1 c6 3d d0 03 50 3c
       -0.0063302964 -8.483231e-05 0.09707998 0.0126962215
000240 2c 89 40 bd 70 9c d4 bd ea 75 95 bd 30 72 d9 3c
       -0.047005817 -0.103814006 -0.07297881 0.026543707
000250 02 e6 f3 3d 20 a3 18 3c d0 6f 5b 3d 68 b4 de bc
       0.11909105 0.009316236 0.05357343 -0.027185634
000260 24 c4 d2 bd 5a ee a5 3d 10 ea ba 3d e4 fa 31 bd
       -0.10291317 0.081021026 0.09126675 -0.04345216
000270 06 6f 97 bd 86 4a 86 3d 2e f4 88 3d 00 04 e8 3b
       -0.07394223 0.06557183 0.066871986 0.007080555
000280 58 fc e9 3d 60 54 26 bc 06 04 96 bd 0c 0d 14 3d
       0.11425084 -0.0101519525 -0.07324986 0.036145255
000290 f0 a2 c5 bd f4 ae f7 3d 80 7d 31 bb 18 a1 b2 3d
       -0.096502185 0.120939165 -0.002708286 0.087221324
0002a0 cc 31 e4 bd 98 37 9f bd f8 15 91 3c 9e 1d e1 3d
       -0.111423105 -0.077742755 0.01771067 0.10991977
0002b0 ea 3e a1 3d b0 da 23 bc 50 e4 0b 3c 5c 5b 67 bd
       0.07873328 -0.01000087 0.008538321 -0.05648361
0002c0 cc 27 c8 3d a8 99 68 bd 94 dc 01 bd 80 7c a1 ba
       0.09773216 -0.056787163 -0.0317045 -0.0012320429
0002d0 fe ee bd bd 40 fd 3d bd c4 b1 49 bd ac ef 32 3d
       -0.092741 -0.046384096 -0.049241796 0.0436856
0002e0 02 f9 c1 bd c0 e0 fe 3d e6 ec 95 3d e0 85 05 bc
       -0.094713226 0.124452114 0.073205754 -0.008149594
0002f0 fc cc 83 3d 7c e3 1f 3d 46 73 c5 bd a0 80 69 3c
       0.06435582 0.039035305 -0.09641127 0.014251858
000300 14 a6 c3 3d d8 22 6b 3d a4 6b 6f 3d c4 bd 9c 3d
       0.09553161 0.057406276 0.058452263 0.076533824
000310 20 b3 2b 3c d4 0c 33 bd d0 73 78 bd a0 c4 0a bc
       0.010479718 -0.043713406 -0.060657322 -0.008469731
000320 84 2a 26 3d 88 6d f7 3c 16 eb 92 bd f0 72 0d 3c
       0.04056789 0.030203596 -0.07173745 0.00863336
000330 1c 79 d1 bd 40 0d 7c 3d 9c 5d 1e 3d 8a 89 cc 3d
       -0.10228178 0.061536074 0.03866349 0.09987171
000340 68 54 88 3d 98 82 8f 3c f6 2e ca 3d a2 77 ce 3d
       0.06656724 0.017518327 0.09872238 0.10081412
000350 78 a5 9e 3d 44 48 a5 bd 34 61 f1 3d f0 23 2d bd
       0.077464044 -0.08070424 0.11786118 -0.0422706
000360 de dd ee bd 58 2b 82 bd b0 5e 59 bd 90 80 dd bd
       -0.116634116 -0.063559234 -0.053068817 -0.10815537
000370 10 e1 80 bc a0 55 f7 3c c8 5d 82 3c c0 93 ec bc
       -0.015732318 0.030192196 0.015913859 -0.028879046
000380 3e bb a6 3d 74 1a f0 bd 40 4d b6 bd 98 0e f5 3d
       0.08141182 -0.117237955 -0.08901453 0.11965674
000390 90 5b f6 bc 00 76 10 3b 98 98 d0 3d e0 a0 13 bc
       -0.030072957 0.002204299 0.10185355 -0.009010524
0003a0 c0 59 fb bc fe da a7 3d d0 29 7f bd 98 05 d3 3d
       -0.030682445 0.08196066 -0.062295735 0.10303801
0003b0 fa 72 c6 bd 7e a1 e5 bd 3a 4b de 3d 30 dc 9d bd
       -0.09689899 -0.11212443 0.10854192 -0.07708013
0003c0 48 5e 89 bd c4 02 df bd 7c 40 76 bd 08 47 8f bc
       -0.06707436 -0.108891994 -0.06012009 -0.017489925
0003d0 c0 a4 a9 3c 84 2b 21 bd b4 41 1f bd d0 20 41 bd
       0.020708442 -0.03934814 -0.03888102 -0.047150433
0003e0 ea 62 cf 3d 2e 9c b1 bd f0 1a d5 bd 90 98 82 3c
       0.10126288 -0.08672367 -0.104055285 0.015941888
0003f0 2a 08 fd 3d 1e 4a e1 bd 70 cf 44 3d e0 b5 8f 3c
       0.12355073 -0.11000465 0.04804939 0.01754278

lstm.weight_ih_l1 f4 [256, 64]
000000 b6 d1 8d bd 8a d7 d4 3d 6c 0d ad 3c 50 cc 12 be
       -0.06924765 0.10392673 0.021124564 -0.14335752
000010 44 de d2 3d 42 10 f4 bd 80 77 be ba 74 2f 67 bd
       0.102963 -0.119171634 -0.0014531463 -0.05644174
000020 48 a6 cb 3c 00 e1 e7 3a 16 37 b4 3d 20 06 56 bc
       0.024859563 0.0017690957 0.08799569 -0.013062984
000030 66 5c d9 3d c0 bc 03 bb c0 97 b0 bb d1 a5 aa bd
       0.10613327 -0.0020101517 -0.0053891838 -0.08332408
000040 40 4a bf 3c 28 99 43 3d 7a 00 fb bd ce 1a ac bd
       0.023350835 0.047753483 -0.1225595 -0.0840355
000050 8c c2 ba bd c0 1b c5 bc 0e 50 a0 3d 5a 22 b1 3d
       -0.09119138 -0.024061084 0.07827769 0.0864913
000060 98 70 ba 3c 80 86 85 bd 1c 05 eb 3d b8 c0 2e bd
       0.022758767 -0.065197945 0.11475584 -0.04266426
000070 90 79 48 3d f0 63 9c bc 8a a2 c8 bd bc d6 34 bd
       0.048944056 -0.019090623 -0.09796627 -0.0441501
000080 06 14 16 bd 60 38 d3 3b ee 55 84 bd df 22 a3 3c
       -0.03664019 0.0064459294 -0.06461702 0.019914089
000090 aa 35 90 bd 26 21 ab bd d0 95 79 3d 78 85 ae 3c
       -0.070414856 -0.08355932 0.060933888 0.021303877
0000a0 32 eb f8 bd 5b 6e 09 be 61 5a 96 bd 00 82 82 3a
       -0.12154235 -0.13421004 -0.07341457 0.0009956956
0000b0 80 5a c0 3c da bd 83 bd a4 f5 d8 bd d4 4a d0 bd
       0.023480654 -0.06432696 -0.10593727 -0.10170522
0000c0 60 a9 43 bd 04 60 96 bd 6c 35 18 3d 8b 65 85 3d
       -0.04776895 -0.07342532 0.037160322 0.065135084
0000d0 20 2c 46 bd 00 17 b7 3a 00 09 d5 bb a0 4c 9e 3b
       -0.048381925 0.0013968647 -0.006501317 0.0048309118
0000e0 00 e3 d4 3b 71 d1 fc bd 10 d7 4a bd 3e 40 98 3d
       0.006496787 -0.12344635 -0.049521506 0.07434128
0000f0 40 1b d5 bb 66 20 d0 3d bc 9d cd bd b8 b5 84 bd
       -0.0065034926 0.101624295 -0.10039851 -0.064799726
000100 ae 85 92 bd 90 30 6e 3d 3e f3 92 bd 34 74 7f bd
       -0.071544036 0.05815178 -0.07175301 -0.06236668
000110 a8 41 e9 3c 70 5a 9f 3c c8 0c 1e bd a8 23 ea bc
       0.02847369 0.019452304 -0.038586408 -0.028581455
000120 7e 23 b7 3d 68 bc 27 3d 20 0d e3 bd e0 67 72 bd
       0.089423165 0.040951163 -0.11086488 -0.059181094
000130 c2 3c d8 3d 7e 94 bf 3d 30 e2 5d 3c f6 19 0a 3e
       0.10558464 0.093544945 0.013542697 0.13486466
000140 5c 17 16 bd f0 23 1e 3d ee f4 f0 3d b0 75 27 3d
       -0.03664337 0.03860849 0.11765467 0.04088372
000150 f6 e4 a7 bd e6 47 b9 bd 10 4f c2 bc 90 fd b1 bc
       -0.08197968 -0.09046917 -0.02371934 -0.021727353
000160 cc 6b 1a 3d 32 72 f8 3d b8 a5 cb 3c e8 b7 fa 3c
       0.03770046 0.12131156 0.024859294 0.030605271
000170 8e 04 e3 bd b6 b9 a5 bd 64 eb 8c 3d bc dc c9 bd
       -0.11084853 -0.08092062 0.06880835 -0.09856555
000180 c8 2b eb 3d 60 88 4f 3d e8 82 3a bd ac 86 dc 3d
       0.1148296 0.050667167 -0.045535 0.10767874
000190 cc 3d db bd 3c a6 f4 3d 50 01 0d 3c 94 08 54 3d
       -0.10705146 0.11945769 0.00860627 0.051765993
0001a0 10 52 ec bc c2 23 85 3d c5 b6 08 3e 80 2b 45 bc
       -0.028847724 0.06500961 0.13350971 -0.012034297
0001b0 00 5a 84 bd 12 b9 d6 3d 80 c7 bd 3b 68 77 bc bd
       -0.06462479 0.10484518 0.0057916045 -0.092024624
0001c0 35 bb 96 bd 08 82 57 3d 82 9b c8 3d 54 83 c7 bd
       -0.07359926 0.05261424 0.09795286 -0.09741846
0001d0 04 e5 2e bd cc 12 da bd 5c d9 d1 bd e8 a3 28 3d
       -0.042698875 -0.106481165 -0.10246536 0.04117194
0001e0 20 61 88 3d 45 6d e5 ba f8 bf 8e bd 94 fe f6 3d
       0.0665915 -0.0017503878 -0.06970209 0.12060276
0001f0 16 dd f3 3d f8 c1 8d bc 70 5a a6 3d fc 23 28 3d
       0.11907403 -0.017304406 0.08122718 0.041049942
000200 c8 e2 d2 bc 9c 7f 71 bd 63 b7 00 be 68 73 bc ba
       -0.025742903 -0.05895959 -0.12569956 -0.0014377655
000210 a2 ae b5 bd 50 64 ad 3c 04 83 94 3d a0 7a 58 3d
       -0.08871199 0.021165997 0.07251552 0.05285132
000220 48 8d 57 3d 1c 0f 48 3d a4 a0 a8 3d a8 38 6c bd
       0.05262497 0.048842534 0.08233765 -0.05767122
000230 00 e9 62 bc 5c cc 70 bd 78 ea 69 3d f9 3a a9 3d
       -0.013849497 -0.058788642 0.057108372 0.08263201
000240 b4 6b eb bd 02 fc aa 3d 44 fa cd bd d2 84 8c 3d
       -0.11495152 0.08348848 -0.100575 0.06861271
000250 4c 7f b6 bd 40 21 f8 3d 18 01 00 bd de 17 c7 bd
       -0.08910999 0.12115717 -0.031251043 -0.09721349
000260 80 eb 38 bd e8 a0 92 bc 66 fb 8e bd 40 3e 35 3c
       -0.045146465 -0.017898992 -0.06981544 0.011062205
000270 e8 06 6c bd 78 4a d9 3c 08 37 f5 bc dc a7 a9 3d
       -0.057623774 0.026524767 -0.029933468 0.0828397
000280 19 0c d8 bd 70 1f 67 3c c0 eb fd bb c7 39 af bb
       -0.105491824 0.014106616 -0.007749051 -0.005347464
000290 1c b6 79 bd e8 67 f1 bc b8 df cd 3d f6 3d ad 3d
       -0.06096469 -0.029468492 0.100524366 0.08459084
0002a0 5a 62 a9 3d 55 da 50 3d 7f ec cb bc 66 ad d2 bd
       0.08270712 0.050989468 -0.024893044 -0.102869794
0002b0 ba 33 96 3d 50 48 3a bd f4 79 87 bd fa a6 b6 bd
       0.07334085 -0.04547912 -0.066150576 -0.08918567
0002c0 a6 85 ed 3d f8 6c fe bd 40 9a a1 3b 3d 69 06 3e
       0.11597757 -0.12423128 0.004931718 0.13126083
0002d0 a2 48 86 3d bc 10 55 bd 28 8c 8d 3d ac df e4 3d
       0.06556822 -0.052017912 0.06911498 0.111754745
0002e0 40 28 bc bb 5f bf 82 bd 10 f9 b5 bd d2 ca f6 bd
       -0.005742103 -0.063841574 -0.088853955 -0.12050404
0002f0 f0 a3 cc bd 12 92 ff bd 2c c6 45 3d b8 ad 5d 3d
       -0.09992206 -0.124790326 0.048284695 0.05412075
000300 ec 29 ff 3d 6a 75 d4 bd 0b 94 af 3d d5 73 66 3d
       0.12459168 -0.103739575 0.08573159 0.05626281
000310 b8 1c a2 3d 20 bd 5c 3d ec 0a 03 bd 10 d3 fd bc
       0.07915634 0.0538913 -0.031992838 -0.030984432
000320 86 e8 d5 3d 44 31 12 3d 08 9a d4 bd f4 a7 cc 3d
       0.10444741 0.035691515 -0.10380942 0.09992972
000330 c0 f6 42 bb 16 49 de 3d 8c 17 c2 bd 0f ea 01 3e
       -0.0029749125 0.10853784 -0.094771475 0.12686943
000340 22 71 d0 bd d5 48 39 3c 40 82 b5 bd 6a a7 c6 3d
       -0.10177828 0.011308868 -0.08862734 0.096999004
000350 f0 75 04 3d b8 12 c2 3d 48 47 c3 3d 3e a8 98 bd
       0.032339036 0.094762266 0.0953508 -0.07453965
000360 88 58 85 bc aa 88 89 3d 40 a5 40 bb 4a 93 b7 3d
       -0.016277567 0.0671552 -0.0029395372 0.0896364
000370 40 b7 f6 bc 52 3f f9 3d 4e d6 ea 3d 18 bb a0 3c
       -0.030116677 0.121702805 0.114666566 0.019620463
000380 3b 25 c0 bd f0 74 aa bd e0 74 e2 3d 94 9d c6 3c
       -0.09382101 -0.08323085 0.110574484 0.024245061
000390 0f be aa bd 58 c3 fd bd 18 b9 56 3d 54 ca b2 3d
       -0.08337032 -0.123907745 0.052422613 0.08729997
0003a0 4c 8f 4c 3d 2f 0b e7 bd 36 c6 02 3e a0 43 c3 3d
       0.049941346 -0.1128143 0.12770924 0.09534383
0003b0 20 82 1c bc a8 85 cb bc b8 b1 c4 bc 48 f4 3f 3d
       -0.009552509 -0.024844006 -0.024010524 0.046863824
0003c0 77 6d 9e bd 14 ef 76 bd 9e a7 a5 bd 7d 9c c3 3d
       -0.077357225 -0.060286596 -0.08088611 0.09551332
0003d0 e4 0b 2a 3d 38 14 bb 3c 8c e1 8c bd c6 c6 d2 3d
       0.041515246 0.02283679 -0.06878957 0.10291819
0003e0 40 29 27 3c b7 70 82 bc 00 58 ec bb c0 74 18 3c
       0.010202706 -0.015922887 -0.007212639 0.009305179
0003f0 80 8d 93 ba 00 cf 94 3a b0 15 83 3d ac 4c 31 3d
       -0.001125738 0.0011353195 0.06400621 0.04328601

lstm.weight_hh_l1 f4 [256, 64]
000000 5e cd 09 be 32 1e cb 3d c9 0c 0c bd ee e4 55 bc
       -0.13457248 0.09917869 -0.03419188 -0.013055069
000010 a1 b3 60 bd 49 72 b7 3d ed b0 e9 bc ff 4d 8d bd
       -0.054858807 0.08957345 -0.028526748 -0.06899642
000020 7c 63 6e bd b5 d1 c9 bc 2f 4a 55 bd 32 61 33 3c
       -0.058200344 -0.024636129 -0.0520727 0.010948466
000030 3f 93 b9 3d 3c 71 6c bc 6f 60 90 bd 77 cf 26 3d
       0.09061288 -0.014431294 -0.07049643 0.040725198
000040 a3 72 38 3d 29 5a 7a bd 23 f3 58 3d e3 39 2c bd
       0.0450312 -0.06112114 0.05296625 -0.042047393
000050 de 9d cc bd 4d d7 78 3d b0 6a 73 3d 59 a4 f6 3c
       -0.09991048 0.0607522 0.059427917 0.030107664
000060 31 2c f4 bd c7 60 05 bd 66 0a 3a 3d e5 5f 0f 3e
       -0.11922491 -0.032562997 0.045420073 0.14001425
000070 25 26 b8 bd 90 10 ec bc 37 37 09 bd 98 eb 07 3e
       -0.089916505 -0.028816491 -0.033499923 0.13273466
000080 6d d7 e2 bc 54 04 4d bd 3c 47 e0 bd d8 e8 08 bd
       -0.027690614 -0.050052956 -0.10951087 -0.033425182
000090 11 6f 94 3d d9 42 7e 3c 93 34 a5 bd 3a a8 02 3e
       0.07247747 0.015518867 -0.08066668 0.12759486
0000a0 96 94 8b 3d e0 60 98 bd 0d bd 0e bd 44 7a 90 bc
       0.0681545 -0.074403524 -0.03484826 -0.017636426
0000b0 e1 17 d7 bd 1b 46 fe bd e9 9c 9d 3b 32 33 64 bd
       -0.105026014 -0.12415715 0.004809965 -0.055712886
0000c0 de 72 dd bd d2 e3 43 3c 37 b8 3d 3d 24 b7 9e 3d
       -0.10812925 0.011956172 0.04631826 0.07749775
0000d0 99 70 34 bd 93 ab 12 3d a9 c7 4f bd b4 f5 af bd
       -0.044052694 0.035808157 -0.05072752 -0.08591786
0000e0 56 8e 3e bc 56 44 79 3d 5a 55 0a 3e 64 80 17 bc
       -0.011630615 0.060856186 0.13509122 -0.009246919
0000f0 52 0f a1 bd 29 cf ef bc 0f dd b2 bc 17 00 07 be
       -0.0786425 -0.029273586 -0.021833925 -0.13183628
000100 d1 d0 ad bc 08 30 0e 3e 9b 64 a2 3b a1 af d2 bd
       -0.021217735 0.1388551 0.0049558408 -0.10287405
000110 50 7f 75 3d 17 5d 09 be ac c3 99 bd 95 eb bc 3d
       0.059935868 -0.13414417 -0.075080246 0.09224621
000120 92 a7 38 3d a7 5b f2 bd 33 c0 d8 3d 67 88 07 3e
       0.045081683 -0.118338875 0.10583534 0.13235627
000130 1e b6 af bd 9c b8 ca 3d bf b0 a0 3a 0a 31 b9 bd
       -0.08579658 0.09898493 0.0012259706 -0.090425566
000140 23 78 ec 3d c5 cc e7 bd da 4b a9 bc 79 e3 7b bd
       0.11546352 -0.113183536 -0.020666052 -0.06149623
000150 f1 56 69 bc c6 8f 85 bd e2 4e c0 bd 84 27 b7 3d
       -0.01424192 -0.06521563 -0.09390046 0.08943084
000160 06 48 8b bd 02 10 b6 3c b6 3d 0e 3e 29 f5 0b 3b
       -0.06800847 0.02222443 0.13890728 0.0021355844
000170 a1 65 21 bd 59 79 bd bd 27 b7 e1 bc 11 72 f4 3d
       -0.03940356 -0.09251661 -0.027553154 0.11935819
000180 7f 8a af bd 9f 62 3c 3d 10 15 e1 3d e6 04 85 bd
       -0.08571338 0.04599249 0.109903455 -0.06495075
000190 61 2b ad 3d d5 d5 9e 3c 7b 41 50 3c d6 e1 21 bb
       0.084555395 0.019389072 0.012710924 -0.002470126
0001a0 c5 a4 00 3d 3a 38 d1 bd 2c fa c3 3d 28 83 f0 bd
       0.031407136 -0.102158025 0.09569201 -0.11743766
0001b0 4e bf 95 3c 4d 9e 21 3d ea 9e 36 bd 69 32 e4 3d
       0.018279698 0.039457608 -0.044585146 0.111424275
0001c0 14 a1 12 be a7 09 ae bd b1 64 11 bd 35 fa c9 3d
       -0.14319259 -0.08497935 -0.035496417 0.09862176
0001d0 3c 07 8e bd 1b a0 ab 3d 91 36 6d 3d c0 5e 12 be
       -0.069349736 0.08380147 0.057913367 -0.14293957
0001e0 3d 02 b2 3d 65 f2 fa 3d 5a d1 15 bc 90 84 22 bc
       0.08691833 0.12253264 -0.009144152 -0.009919301
0001f0 10 b8 5c bd 51 c1 f9 bd 9e 31 90 3b 29 f5 a9 3d
       -0.053886473 -0.12195075 0.004400446 0.08298714
000200 2a 11 3f 3d 99 cf b6 3c 72 cd b8 3d ca 3c ee bb
       0.04664723 0.022315787 0.090235606 -0.00727043
000210 52 eb c2 3d 07 1b 22 3d a9 36 6a 3b 23 7c 35 bd
       0.0951754 0.039576557 0.0035738146 -0.04430784
000220 f0 8d 4d bc cb aa 56 3d 52 8b 6f 3d e7 e7 f7 3c
       -0.012546048 0.052408975 0.058482476 0.030261947
000230 d7 08 78 3d 5e ef bc bd b8 88 de 3c 2d 23 bb 3c
       0.060555305 -0.09225343 0.027164802 0.022843922
000240 ee 59 f5 bc d5 1e cd bd 91 7d c7 3c 62 d0 c8 3d
       -0.029950108 -0.10015646 0.024351867 0.09805371
000250 15 0e 2c 3d 15 65 93 3d 78 7b 2c 3c df 1e 6b 3d
       0.042005617 0.07197014 0.010527484 0.057402488
000260 0a f4 0f 3c 5b 71 4f bc 76 aa 15 3d d1 b9 a6 bd
       0.008786211 -0.012661303 0.036539517 -0.081409104
000270 91 65 68 bd c3 a1 f2 3d 0c 15 69 bb d7 9c dc bd
       -0.056737486 0.1184726 -0.0035565523 -0.10772102
000280 a4 cb 1f 3d 62 b7 94 bd 36 bf 03 bc 0a e1 89 bd
       0.039012566 -0.0726154 -0.008041194 -0.06732376
000290 7b 58 ca bc 63 e7 c5 3d 3f b0 93 3d 92 a4 42 3d
       -0.024700394 0.09663274 0.07211351 0.047520228
0002a0 15 c1 9c bd 7c 6f ed bd 28 e6 5f bd 7b 69 99 bd
       -0.07654015 -0.115935296 -0.054662853 -0.07490822
0002b0 40 e8 a4 bd a2 59 e4 bd 8e 50 a2 bd 0a eb a1 bd
       -0.08052111 -0.111499086 -0.07925521 -0.07906158
0002c0 df 53 66 bc 19 0c b4 bd b8 13 21 3d 0f fd dd bd
       -0.014058082 -0.0879137 0.039325446 -0.10839283
0002d0 3c 90 21 3d 13 05 0f be b2 2d 82 3d 29 01 03 3d
       0.039444193 -0.1396678 0.06356372 0.03198353
0002e0 26 5b be 3d bc 61 0d be 5c 24 b5 3d 5a c6 a6 3d
       0.09294729 -0.13806814 0.088448256 0.08143301
0002f0 7d 98 98 bd 4e 09 fa 3c 2b 44 ce 3c 6a 43 5d 3d
       -0.0745096 0.030522015 0.02517899 0.05401937
000300 d5 5f a0 bd 4f 3d 14 bd 20 b2 07 3d da a4 ef 3a
       -0.078307785 -0.03619128 0.033128858 0.0018283383
000310 ed 99 d7 3d 46 73 66 bd 4a ec 07 3d 25 18 7e bc
       0.10527406 -0.056262277 0.033184327 -0.015508686
000320 ca ab 81 3d 09 bc 46 bd f4 43 d5 3d 6d 42 a0 bd
       0.06331594 -0.048519168 0.10413352 -0.0782517
000330 de 87 a0 bc ac d4 86 bd 2a 29 00 3e 7e 13 9b bd
       -0.019596037 -0.06583533 0.12515703 -0.07572077
000340 d5 2b 9d bd 75 93 8c 3c 27 5d 98 3d ad 67 63 3d
       -0.07674376 0.017160157 0.074396424 0.055518795
000350 56 84 f8 bd 9f 28 62 bd a8 37 c1 3d b3 88 09 3e
       -0.12134616 -0.05521452 0.09434444 0.13431053
000360 1c a7 77 3d 1c 20 6a 3d 4c 82 b4 bd f8 8a d2 bb
       0.060462102 0.057159528 -0.08813915 -0.006425258
000370 fd d2 13 3e 6e 57 68 bb 78 ae cb 3c 62 99 3d 3d
       0.14435954 -0.0035452503 0.024863467 0.046288855
000380 e3 2d a2 3d bb c9 a4 3d 38 52 b6 3d ae d7 81 bd
       0.079189084 0.080462895 0.08902401 -0.06339966
000390 a9 65 8d bd e1 d3 50 bd e8 48 f5 bc 24 f1 85 bd
       -0.06904156 -0.050983313 -0.029941991 -0.065401345
0003a0 1d bc 11 bc b7 ab 12 3e c8 3b 06 be 68 5a 18 3d
       -0.008894947 0.14323317 -0.13108742 0.037195593
0003b0 ef 79 c2 3c 28 c1 38 3d 3d 9c 7c 3d 6e f3 b9 bd
       0.023739783 0.045106083 0.061672438 -0.09079634
0003c0 9f 09 08 be c8 70 20 3c 7b de 8c ba 48 d4 9d 3c
       -0.1328492 0.009792514 -0.0010747457 0.019266263
0003d0 cd eb 81 bb 2d be af bd 3f 2c e9 3c 31 8a 02 be
       -0.003964877 -0.08581195 0.028463481 -0.12748028
0003e0 b7 9d 0c bd c8 3a d7 3d e0 fe ef bc 2f b7 ce 3d
       -0.034330096 0.105092585 -0.029296339 0.10093533
0003f0 a7 44 c2 bd bc e5 2c 3d 26 5a 55 bd a7 a6 b9 3d
       -0.09485751 0.04221128 -0.052087925 0.090649895

lstm.bias_ih_l1 f4 [256]
000000 0b 50 dd 3d 94 2b 68 bd 1a c6 05 be fc 01 12 bd
       0.108062826 -0.056682184 -0.13063851 -0.035646424
000010 88 29 f3 bd 96 ca f4 3d b4 3c 0d 3e b8 d0 ff bd
       -0.11873156 0.11952703 0.13792688 -0.12490982
000020 55 d0 0a 3d 1e 86 67 3d 82 a3 c1 bd 29 9d 56 3c
       0.033890087 0.05652439 -0.09455015 0.013098993
000030 b6 a8 06 3d 72 64 d8 3d 0f 3d 5c 3d b6 30 92 3d
       0.03287574 0.105660334 0.053769168 0.07138197
000040 10 6f d5 3d 55 12 c0 bd 96 23 2b bc b9 a5 45 bd
       0.10421574 -0.093784966 -0.010445496 -0.04825375
000050 8e 03 d6 3c 3a 6a 5b bd 6a 71 f7 bd d8 0e c4 3c
       0.026124742 -0.053568102 -0.12082179 0.02393286
000060 40 d9 93 3c d8 a8 cb bd 24 17 6d bd f9 e8 ee bc
       0.018047929 -0.09944314 -0.057883397 -0.029163824
000070 64 c6 5f bd bf 34 0a 3e 77 2d 2f 3d a0 c7 36 bd
       -0.05463256 0.13496684 0.042767968 -0.04462397
000080 e4 aa 36 3d 69 92 24 bc 43 d8 ad 3d 40 99 d6 bc
       0.044596568 -0.0100446725 0.08488514 -0.026196122
000090 b2 dd f7 3d f2 bb 8a bd ef 29 5a 3d 83 d2 88 3d
       0.12102832 -0.06774129 0.053262647 0.06680777
0000a0 cb 84 58 bd 8f 31 d3 3d f9 72 10 bd f4 9a d2 3c
       -0.052861016 0.10312187 -0.035265896 0.025708653
0000b0 a5 26 90 bd 71 ea a3 3c d2 a3 f7 3d e6 0b 15 3c
       -0.07038621 0.020009251 0.12091793 0.009097075
0000c0 64 46 a6 3d a4 16 e1 bc 99 01 43 3d 1c 27 e6 3d
       0.08118895 -0.027476616 0.047608946 0.11237928
0000d0 c4 a0 00 3d b8 9f 10 bd 25 96 47 3d 97 88 cd 3d
       0.031403318 -0.03530857 0.048727173 0.10035818
0000e0 4b 44 7c 3d 05 34 1d 3d 2a 04 ce bc e7 aa a2 3d
       0.061588567 0.038379688 -0.02514847 0.07942753
0000f0 7c fe e4 bd 38 37 da bd a4 5f 5c bd 50 3f d5 3c
       -0.111813515 -0.106550634 -0.053802148 0.026031166
000100 c6 4b a4 3a 18 e3 83 bd ae 4e 94 bd e3 71 ca 3d
       0.0012534789 -0.06439799 -0.072415695 0.098850034
000110 81 b4 36 3d 7a b0 2c bd 7a e5 72 bd f7 a0 e5 bc
       0.044605736 -0.04216049 -0.059300877 -0.028030856
000120 58 34 ae 3d a2 55 07 be 71 51 58 3d 67 32 e7 bd
       0.085060775 -0.1321626 0.052812044 -0.1128891
000130 0e 21 f0 bd ef da a1 bd f0 6a a4 3d fc eb a0 3d
       -0.11725055 -0.079030864 0.08028209 0.078575104
000140 24 83 a2 bc 8f 05 b3 bc 08 4d 8b bd c9 4d 80 bd
       -0.019837923 -0.021853236 -0.06801802 -0.06264836
000150 d3 ee 99 bd 92 00 81 bd b0 30 fc b9 58 93 b4 bd
       -0.07516255 -0.06298937 -0.0004810146 -0.08817166
000160 3e 4f dc 3c ca 86 30 3c a1 a3 8c bd 9e dc 98 3d
       0.026893254 0.010774324 -0.06867147 0.074639544
000170 e0 9d e4 3d 2f 77 b8 3d e2 0c ba bd d9 e1 00 3c
       0.11162925 0.090071075 -0.090844885 0.007866346
000180 ba a8 0d bd 75 7b c1 3c d6 9b d4 3d 61 71 e0 bc
       -0.03458474 0.02361844 0.10381286 -0.027397813
000190 ec af 04 3e 17 93 f1 3c bc 27 0a bc b1 56 51 bd
       0.12957734 0.029489083 -0.008432325 -0.051108066
0001a0 a8 f2 3f ba 66 fa 85 bd 5b 2e 14 3d fc 8e e3 3d
       -0.00073222304 -0.065419 0.03617702 0.111112565
0001b0 59 45 47 bd 05 90 8b bd 52 49 65 3d 84 f4 7b 3c
       -0.04865012 -0.06814579 0.055978127 0.015378121
0001c0 33 cb d1 3d 5e 09 22 3a a8 a1 99 bd a0 55 c6 3d
       0.10243835 0.00061812054 -0.075015366 0.096843004
0001d0 33 be 04 3e cc 38 83 bd 7c f3 80 bd d7 d4 a0 bc
       0.1296318 -0.064073175 -0.06296441 -0.01963274
0001e0 df 92 d3 bc b6 48 18 bd 45 06 a4 bd 7e 61 f1 bb
       -0.02582687 -0.037178718 -0.08009008 -0.0073663583
0001f0 6a 11 e0 3d 48 23 bc 3d 9b c8 ee 3c 13 76 48 3d
       0.109408215 0.09186417 0.02914839 0.04894073
000200 31 4d ac bd 82 06 04 3e c4 ba fb 3d 8e 5c a4 bc
       -0.084131606 0.12893108 0.12291482 -0.020063665
000210 db 72 8a 3d b7 f9 e2 bc 42 d3 14 bd 76 6a 74 bd
       0.06760188 -0.027706964 -0.036334284 -0.05967184
000220 eb d6 f6 bc 06 29 a3 3a 9b 62 83 bd b7 c5 d6 bd
       -0.030131778 0.0012448139 -0.06415292 -0.1048693
000230 0b 9d d1 bd 11 fb 77 bd 3a d7 1c 3d ba fb cb 3c
       -0.10235032 -0.06054217 0.038291194 0.024900306
000240 55 4a 9c 3d 56 c7 b3 bc ec fd b8 bd 6b dc e0 3d
       0.07631365 -0.021945637 -0.09032807 0.109795414
000250 42 0b d2 3d ec 5e 36 3d 0d fb e7 bc 38 65 0d 3e
       0.102560535 0.04452412 -0.028317953 0.13808143
000260 a6 72 f6 3c 1d 6d 29 bd 96 56 be 3d b0 20 f6 3d
       0.030083966 -0.041363824 0.09293859 0.120179534
000270 8a 4a f5 bb ad 77 a2 3c 25 db ac bd 88 b4 b3 bd
       -0.0074856924 0.019832456 -0.08440236 -0.08774668
000280 f5 ce 9a 3d 5e 05 d1 3c 35 d3 3c 3d 11 a9 39 bc
       0.07559005 0.025515255 0.04609986 -0.0113318125
000290 1a a5 01 be c2 44 a5 3d ad 57 f4 bd c3 a2 c3 bb
       -0.12660637 0.08069755 -0.11930785 -0.0059703304
0002a0 68 7a 04 be e0 c2 60 3d 92 57 64 bd 83 b2 43 3c
       -0.1293732 0.054873347 -0.055747576 0.011944416
0002b0 c5 ab 15 3d 46 ba 8d bd 07 fd a8 3d c6 cb bf 3d
       0.036540765 -0.069202945 0.08251386 0.093650386
0002c0 c8 ef 7c 3c 21 a0 8f bd 32 a6 55 bd 45 7e a6 bd
       0.015438028 -0.07012964 -0.05216045 -0.08129553
0002d0 c5 9a c4 bb a3 22 d6 bd f5 e5 f1 3d 38 d6 62 bd
       -0.0059998953 -0.10455825 0.11811439 -0.055380076
0002e0 d7 95 a6 3d 76 f7 20 bd 46 ce bc bc 40 5b b7 3d
       0.081340484 -0.039298497 -0.023047578 0.089529514
0002f0 15 66 26 3d 91 7c cc bd 31 65 55 3d 7d e3 ad 3c
       0.040624697 -0.09984697 0.052098457 0.021226639
000300 aa 52 bd bd 35 2e 57 bd 03 d1 0b be b7 d4 11 3e
       -0.092442825 -0.0525343 -0.1365395 0.142413
000310 e6 22 9f 3c f5 d6 06 3e 09 88 2a 3d 9d 1a 20 3d
       0.01942582 0.13167937 0.04163364 0.03908788
000320 25 92 fa bc cf 04 03 3d f9 66 53 3d da 7b 35 bc
       -0.030587265 0.031987008 0.051611874 -0.011076892
000330 16 34 fa ba 06 2c ce bd 9d c0 99 bd 1d bd a0 3c
       -0.0019089009 -0.100669906 -0.07507441 0.019621426
000340 e6 6e 5d 3d 96 b7 a6 bd 2a d1 b7 3c 53 39 d8 3d
       0.05406084 -0.08140485 0.022438604 0.10557809
000350 98 a6 e5 bc 11 ad 27 3d 14 eb 8d bd 86 2b f5 3c
       -0.02803354 0.040936533 -0.06929603 0.02992798
000360 96 7f b4 3c c2 a5 56 bd 2c e4 ab 3d 5f 0e 8d bd
       0.022033494 -0.052404173 0.0839313 -0.06887507
000370 94 51 4e 3d 87 9c f3 bc 37 c5 9e 3d 92 d2 e8 3d
       0.050370768 -0.029737724 0.077524595 0.11368288
000380 53 bd b5 3d c3 90 0c be 74 c4 4b 3d 9a 57 a1 3c
       0.08874001 -0.13727097 0.0497479 0.019695092
000390 41 54 b4 3d d8 78 09 3e bf a3 0d 3e fd 5b af bd
       0.08805133 0.13425004 0.13831995 -0.08562467
0003a0 88 5b fa bc 5e d7 38 bd 75 98 c2 3d a5 9a 06 3d
       -0.030561224 -0.045127265 0.09501735 0.032862324
0003b0 a4 6e 0d 3e 3b cd db 3d 44 5f a5 3d f7 93 f5 3d
       0.13811737 0.10732504 0.08074811 0.11991113
0003c0 02 67 d7 bd 86 4c 92 bd 15 f0 c7 bd 9b dd 6e bd
       -0.10517694 -0.07143502 -0.09762589 -0.05831681
0003d0 ed 6e bc 3c 0c a0 b5 bd a5 82 f8 bd fe d1 44 bc
       0.023002112 -0.08868417 -0.121342935 -0.012012957
0003e0 bd 8c 9a bd 78 8c c4 bd cf cc 57 bd 71 da ec 3c
       -0.07546375 -0.09597105 -0.052685555 0.028912755
0003f0 a6 c7 3c 3d 81 d9 10 bd a6 60 f1 3d c7 8c f0 bd
       0.046088837 -0.035363678 0.11786012 -0.11745601
