lstm_model.pth (torch, 212469 bytes, 10 tensors)

lstm.weight_ih_l0 f4 [256, 6]
0	0x3de89cbc	0.1135802
1	0x3d2bccf3	0.0419435
2	0xbd46287b	-0.04837845
3	0xbc689839	-0.014196449
4	0xbceda2f8	-0.029008374
5	0x3c805a36	0.015668016
6	0xbd8752f9	-0.06607623
7	0xbdc964d3	-0.09833684
8	0x3d6fab7c	0.05851315
9	0xbda9b392	-0.082862034
10	0xbb8dbe6e	-0.0043256795
11	0xbd52c213	-0.051454615
12	0xbd9bb575	-0.076029696
13	0xbd7e1e57	-0.062040653
14	0x3d21e4e4	0.039524928
15	0x3de84068	0.113404095
16	0x3df184e0	0.11792922
17	0x3c7fa130	0.015602395
18	0x399f7f7d	0.0003042183
19	0xbcc67e35	-0.024230102
20	0x3e058bcc	0.1304161
21	0xbdb84016	-0.089965984
22	0x3d8450cc	0.06460723
23	0x3d8057ca	0.062667444
24	0x3e0ff103	0.14056782
25	0xbd07b35a	-0.033130027
26	0x3d57dc9d	0.052700628
27	0xbd27fe2e	-0.04101389
28	0x3ceb9153	0.02875582
29	0x3d60817e	0.054810993
30	0x3d25017b	0.040284615
31	0xbd8eb03f	-0.0696721
32	0x3c908af1	0.017644377
33	0xbd9e3834	-0.07725564
34	0xbd247896	-0.040154062
35	0x3d97806b	0.07397541
36	0x3df5570f	0.11979496
37	0xbdc2886f	-0.09498679
38	0x3e00542d	0.1253211
39	0xbd8e28ad	-0.06941352
40	0xbdbdf5ab	-0.09275373
41	0xbc097ec3	-0.008392039
42	0xbdc84384	-0.097785026
43	0x3cd88bc5	0.026433835
44	0xbcea44b0	-0.028597206
45	0xbdc88ee5	-0.0979288
46	0xbd216cd7	-0.03941044
47	0x3ddb80cc	0.107179254
48	0x3d962969	0.07332117
49	0x3dc944b0	0.09827554
50	0xbda86668	-0.082226574
51	0x3dd254e4	0.10270098
52	0x3d4f279a	0.050574876
53	0xbd3c7c10	-0.046016753
54	0xbcdaa475	-0.026689747
55	0x3cfc5a61	0.030804815
56	0xbddb642f	-0.10712468
57	0x3dc0560d	0.09391413
58	0x3c9e30fe	0.01931047
59	0x3af043b0	0.0018330719
60	0xbdbd2186	-0.0923491
61	0xbdaec382	-0.08533384
62	0xbcfe31b1	-0.031029554
63	0x3d9fb47e	0.07798098
64	0xbca0cfb2	-0.019630287
65	0x3d88182a	0.06645234
66	0xbdd03396	-0.10166089
67	0xbd069683	-0.032858383
68	0xbd7887ae	-0.06067627
69	0x3caceaaa	0.02110799
70	0x3d817c2e	0.063225135
71	0xbb778d62	-0.003777348
72	0xbcd08070	-0.025451869
73	0xbd4b8b53	-0.049693417
74	0xbde0eb9d	-0.1098244
75	0xbd939dda	-0.07207842
76	0x3e01a4d8	0.12660539
77	0x3d26562f	0.040609535
78	0xbc188ad8	-0.009310447
79	0x3df17666	0.11790161
80	0xbc3d9f22	-0.011573585
81	0xbde4cc4f	-0.11171781
82	0xbdb71fbb	-0.08941599
83	0x3ddb62e2	0.1071222
84	0xbd3745b6	-0.044744216
85	0xbd2a7e2e	-0.04162424
86	0xbdca1c99	-0.09868736
87	0x3b363ae5	0.00278061
88	0x3da83334	0.08212891
89	0xbdd3c1ee	-0.103397235
90	0xbdb8d4fd	-0.09024999
91	0xbde1acf3	-0.110193156
92	0xbd89ea0c	-0.06734094
93	0xbb9fbae3	-0.0048745736
94	0xbd813615	-0.063091435
95	0x3d4e8bf4	0.05042644
96	0xbcba7671	-0.022761555
97	0x3d64465c	0.055731162
98	0xbdac50f2	-0.084138766
99	0xbdd0148c	-0.10160169
100	0xbd53440b	-0.051578563
101	0x3cfdb0d0	0.0309681
102	0x3ddc4209	0.10754783
103	0xbd565a51	-0.052332226
104	0x3dc5f5e7	0.09666043
105	0xbd763c1b	-0.060115915
106	0x3d97a7e1	0.07405067
107	0x3d7878db	0.06066213
108	0xbb23bdbd	-0.002498492
109	0xbdb53402	-0.0884781
110	0xbd92d04a	-0.07168634
111	0x3c82e3b4	0.015977718
112	0x3df03fcb	0.117309175
113	0x3dbeca4f	0.09315931
114	0x3dc6f5e2	0.09714867
115	0x3dce74a6	0.10080843
116	0x3db5b924	0.088732034
117	0xba8180ca	-0.0009880301
118	0x3c5f18e8	0.013616778
119	0xbdafff2a	-0.085935906
120	0x3d84e9c7	0.06489902
121	0x3d905ac4	0.07048562
122	0x3df3ecfb	0.11910435
123	0xbdbd3078	-0.0923776
124	0xbca0ee0a	-0.019644756
125	0xbdba9b1f	-0.09111618
126	0x3dc108dd	0.09425519
127	0x3dea53fd	0.11441801
128	0x3ddcf6ec	0.10789284
129	0xbb0c384b	-0.0021395858
130	0x3d7ca036	0.061676227
131	0x3d08fc30	0.03344363
132	0x3cbab40b	0.02279093
133	0xbddbc706	-0.1073132
134	0x3d577dab	0.05261008
135	0xbdda7e80	-0.10668659
136	0x3d063ee8	0.032774836
137	0xbd71eb68	-0.05906239
138	0x3dc4bba0	0.09606099
139	0x3dcef43a	0.10105176
140	0x3d81ea63	0.06343534
141	0xbd48613c	-0.048920855
142	0x3d5c5ab6	0.053797446
143	0x3df3cd04	0.11904338
144	0xbdbc7c79	-0.09203429
145	0x3ddf6ed8	0.10909814
146	0x3dd0cf52	0.10195793
147	0xbcf496e9	-0.029857116
148	0x3d309bf0	0.043117464
149	0x3d4da6e2	0.05020798
150	0x3ccf0f2f	0.025275795
151	0x3c1f67fa	0.00972938
152	0x3df88202	0.12134172
153	0xbd277960	-0.040887237
154	0x3d96b35c	0.07358429
155	0x3c1bc70a	0.009507904
156	0x3cc1b0d5	0.02364389
157	0xbd1d75da	-0.03844247
158	0x3d822692	0.06355013
159	0xbddd82e5	-0.10815982
160	0xbcb84810	-0.0224953
161	0x3da3c0d1	0.07995761
162	0x3d4d8b82	0.050181873
163	0xbdc19be7	-0.09453564
164	0xbdaf18e6	-0.08549671
165	0x3ddae9a2	0.10689093
166	0xbdb53053	-0.08847108
167	0xbd7f4aba	-0.062327124
168	0x3df70551	0.12061561
169	0xbcf644bd	-0.030062074
170	0xbdd568ae	-0.10420357
171	0x3de42790	0.111403584
172	0x3e02eebd	0.12786384
173	0xbd2a975b	-0.04164825
174	0x3cb186ba	0.021670688
175	0x3c111250	0.008854464
176	0x3c589faf	0.013221665
177	0x3da365bd	0.079783894
178	0xbdd14f68	-0.10220224
179	0x3de0c8de	0.109758124
180	0xbd854bb6	-0.06508581
181	0xbde12340	-0.109930515
182	0xbde073e5	-0.10959605
183	0xbb96d2a3	-0.0046027466
184	0x3d2e637c	0.042575344
185	0xbd81b4ea	-0.06333335
186	0xbc9c062e	-0.019045915
187	0xbdf2d198	-0.11856383
188	0x3cde5152	0.027138386
189	0xbcd10d21	-0.025518956
190	0xbdd1d357	-0.10245388
191	0xbcb3ee75	-0.021964291
192	0x3d6e6c53	0.058208775
193	0xbcd9dcfa	-0.026594628
194	0xbd29c93a	-0.04145167
195	0x3ccf50e5	0.025307128
196	0xbdb47f40	-0.088133335
197	0x3d63f62b	0.055654686
198	0xbdbcb578	-0.092143
199	0xbda862a2	-0.08221938
200	0x3b964b29	0.0045865965
201	0xbdd03c63	-0.10167768
202	0xbda56b9a	-0.08077164
203	0xbd3870eb	-0.045029562
204	0x3dbe6a50	0.09297621
205	0xbd371dad	-0.044706035
206	0xbbdd470b	-0.0067528537
207	0xbdfed07e	-0.124421105
208	0x3d632ac6	0.055460714
209	0xbdb823ab	-0.08991178
210	0x3d78a856	0.060707413
211	0x3cfb150a	0.03064968
212	0xbd8eb036	-0.06967203
213	0x3da915b0	0.0825609
214	0xbbb0af17	-0.005391966
215	0x3de993b9	0.11405129
216	0xba2b872d	-0.0006543275
217	0xbdc8dd3a	-0.098078206
218	0xbd612468	-0.05496636
219	0xbdbca91b	-0.09211942
220	0x3de7d9f0	0.11320865
221	0x3e0b7b6f	0.13621305
222	0x3d8d986d	0.069138385
223	0x3df178d9	0.11790628
224	0xbd8374a2	-0.0641873
225	0xbdc69c9c	-0.096978396
226	0xbdc2e7f3	-0.09516897
227	0xbcc6fb46	-0.024289738
228	0xbc81f330	-0.015863031
229	0xbde80b85	-0.11330322
230	0xbdbc37b3	-0.09190311
231	0x3d750439	0.05981848
232	0x3d73e082	0.05954028
233	0xbc7e69a1	-0.015528114
234	0xbd95852f	-0.073007934
235	0x3da49812	0.080368176
236	0x3d566abd	0.052347887
237	0x3cb09f1f	0.02156025
238	0xbca9761a	-0.020686198
239	0xbbf8d787	-0.0075940522
240	0xbdb8a953	-0.09016671
241	0xbd367a06	-0.044549964
242	0x3c6afdbe	0.014342723
243	0x3e006705	0.12539299
244	0x3dafd830	0.08586156
245	0xbd06ebf0	-0.03293985
246	0xbd993ae5	-0.07481936
247	0xbda74557	-0.081675224
248	0x3b02e96d	0.0019975558
249	0x3cc9e604	0.024645813
250	0x3d812869	0.06306536
251	0xbda0686f	-0.07832419
252	0x3e0fd12a	0.14044634
253	0xbd020d1b	-0.03175078
254	0x3c142c0c	0.009043705
255	0x3d0e8bf2	0.03480143

lstm.weight_hh_l0 f4 [256, 64]
0	0xbdb8bf92	-0.09020914
1	0xbd156a4f	-0.036478337
2	0xbd5e25fd	-0.054235447
3	0x3d06f1a6	0.032945298
4	0xbe02d4c7	-0.1277648
5	0x3dff163c	0.12455413
6	0x3c5de5fd	0.013543603
7	0xbe1005f2	-0.14064768
8	0xbd3905ed	-0.045171667
9	0x3d437651	0.047720257
10	0xbd463121	-0.048386697
11	0xbe027358	-0.12739313
12	0x3db4c5b2	0.0882677
13	0x3dae0e50	0.08498824
14	0xbde4243b	-0.11139723
15	0x3dcc38c3	0.09971764
16	0xbddf2d3f	-0.10897302
17	0xbdcbed6f	-0.09957396
18	0xbdabbdcd	-0.08385811
19	0xbd51e628	-0.051244885
20	0x3d03dc33	0.03219242
21	0x3ccf3214	0.025292434
22	0x3d1da8fa	0.038491227
23	0x3bcf27c7	0.0063218805
24	0x3d183c93	0.037167143
25	0xbdae9c05	-0.08525852
26	0xbd3e91af	-0.046525653
27	0x3cd9586b	0.026531419
28	0x3cedb4e0	0.029016912
29	0x3dc1f729	0.0947097
30	0x3d41cfd7	0.047317352
31	0xbcb5ef42	-0.022208814
32	0x3db8b8e5	0.09019641
33	0x3dd0a563	0.10187795
34	0x3c5e95ef	0.013585552
35	0xbd918270	-0.07104957
36	0x3c02c7e4	0.007982228
37	0x3e0890bc	0.13336462
38	0xbcb69c09	-0.0222912
39	0x3dcf2930	0.10115278
40	0x3b14d7ed	0.002271171
41	0xbdcb7e91	-0.0993625
42	0x3d9643bf	0.0733714
43	0x3ddfca07	0.109272055
44	0x3d9d327c	0.07675645
45	0x3e072f97	0.13201748
46	0x3e0a3bf6	0.13499436
47	0xbdd8683c	-0.10566756
48	0xbdaab93c	-0.08336112
49	0x3d831048	0.0639959
50	0x3d0cf365	0.034411807
51	0xbd99fe06	-0.07519154
52	0x3d050c68	0.032482535
53	0x3db6a38e	0.08917914
54	0x3cac9c35	0.021070579
55	0xbd8e4742	-0.06947185
56	0xbc3c5f60	-0.011497349
57	0xbd61f0fb	-0.055161458
58	0x3d02001c	0.031738386
59	0x3de1668f	0.110058896
60	0xbd841a8b	-0.06450375
61	0xbc81e604	-0.01585675
62	0xbb762898	-0.0037560817
63	0xbcbca207	-0.02302648
64	0x3d5a13d2	0.05324156
65	0xbdf0a644	-0.11750463
66	0x3ce26586	0.0276363
67	0x3d21eb56	0.039531074
68	0xbda44af5	-0.080221094
69	0x3d282e62	0.04105986
70	0x3c58b605	0.013226991
71	0xbdc68550	-0.09693396
72	0x3d83feea	0.064451054
73	0x3dc4d492	0.09610857
74	0xbcc8c9b7	-0.024510248
75	0xbd574a1c	-0.05256091
76	0xbb019322	-0.0019771536
77	0x3d2cac25	0.042156357
78	0xbd4538c4	-0.04814984
79	0xbda44985	-0.08021835
80	0x3cb46ff6	0.022026043
81	0xbd889417	-0.06668871
82	0xbd2f9a89	-0.042871986
83	0x3dd58df9	0.1042747
84	0x3deac74f	0.11463796
85	0xbdeb6da1	-0.114955194
86	0x3d40aed5	0.047041733
87	0x3cc8ad45	0.024496684
88	0x3da37171	0.079806216
89	0x3dedea16	0.11616914
90	0xbd1c8de0	-0.03822124
91	0x3d9ced75	0.07662479
92	0x3dd3efa6	0.10348444
93	0xbcdf70ed	-0.027275527
94	0x3de9ae14	0.11410156
95	0x3da877e9	0.08225996
96	0x3d85b734	0.06529084
97	0xbdc163a4	-0.09442833
98	0x3d6fddce	0.05856114
99	0xbc9cbb53	-0.019132292
100	0xbdcc583a	-0.099777654
101	0xbd9b993a	-0.07597585
102	0x3a5dbfe2	0.0008459074
103	0x3bddbb65	0.006766724
104	0xbd88b184	-0.066744834
105	0x3d414f83	0.04719497
106	0xbdd336c9	-0.10313184
107	0xbd943259	-0.072361656
108	0xbd9af8b6	-0.07566969
109	0xbcd3a58b	-0.025835773
110	0x3dc5d69d	0.09660075
111	0x3ddc81b3	0.10766926
112	0xbdebacde	-0.11507581
113	0x3cdd283d	0.026996726
114	0x3a8f9082	0.0010953101
115	0x3d936ef4	0.07198897
116	0xbd0b11b1	-0.03395242
117	0xbd9448c9	-0.07240445
118	0x3c5b04fa	0.013367886
119	0xbde8b0b7	-0.11361831
120	0x3d61d823	0.055137765
121	0xbdefde79	-0.11712355
122	0x3df98ea6	0.12185411
123	0x3d183b09	0.037165675
124	0x3cfe9c63	0.03108043
125	0x3d92cf4e	0.071684465
126	0xbdb1e1ad	-0.08685622
127	0xbdd78cec	-0.105249256
128	0xbd2adb57	-0.041713085
129	0x3d8b64bd	0.06806324
130	0x3db4a7cd	0.08821068
131	0xbc571624	-0.013127837
132	0xbdb32201	-0.0874672
133	0x3d2e4ed1	0.042555634
134	0x3d3bdd30	0.045865238
135	0xbc2ff19a	-0.010738755
136	0x3d840959	0.064470954
137	0x3d6d00da	0.05786214
138	0xbcba3c8e	-0.022733953
139	0xbdda1d39	-0.10650105
140	0x3ce124c6	0.027483355
141	0x3d1af8e0	0.037835002
142	0xbd92909b	-0.071564876
143	0x3b98ea98	0.0046666376
144	0xbce98a3c	-0.028508298
145	0x3c8244da	0.015901972
146	0x3cedbf41	0.029021861
147	0xbdc97f2b	-0.098387085
148	0xbdfbc48f	-0.1229335
149	0xbb061609	-0.0020459911
150	0x3dc8ff02	0.09814264
151	0x3d7667cc	0.060157582
152	0x3a605147	0.0008557033
153	0xbdd59b87	-0.10430055
154	0x3d6d7eac	0.05798213
155	0xbd4dfb2e	-0.05028837
156	0xbc90353f	-0.017603515
157	0xbd7aa3d3	-0.06119139
158	0xbdd4104a	-0.103546694
159	0xbd992e2b	-0.07479509
160	0x3db8d1ed	0.09024415
161	0x3dabfcda	0.08397837
162	0x3d5fac8e	0.05460792
163	0xbd894848	-0.0670324
164	0x3e0f4c15	0.13993867
165	0x3e058ec9	0.1304275
166	0xbd81fab2	-0.063466445
167	0x3d5fedd4	0.05467017
168	0x3dc93cf6	0.098260805
169	0x3d368f06	0.04456999
170	0xbda95634	-0.08268395
171	0xbdb1fcb7	-0.0869078
172	0xbde43b78	-0.11144155
173	0xbdc1ed9c	-0.094691485
174	0x3d2d12cb	0.04225425
175	0xbd0d5dbc	-0.03451322
176	0xbdc82ad7	-0.09773796
177	0x3d42db98	0.047572702
178	0x3d9f56be	0.07780217
179	0xbc81e3bd	-0.015855664
180	0x3d1471cb	0.036241334
181	0xbd6707b1	-0.05640382
182	0xbe01615e	-0.12634799
183	0x3d202e93	0.039106917
184	0x3dba861b	0.0910761
185	0xbaaef6d0	-0.0013348702
186	0x3db4d201	0.088291176
187	0xbcef9b1e	-0.02924877
188	0x3d4e6709	0.05039123
189	0xbb887ad2	-0.004165032
190	0xbd058ca9	-0.032604847
191	0x3d1057a2	0.035239823
192	0x3d854c08	0.065086424
193	0xbd3c6379	-0.045993302
194	0xbcea6563	-0.028612798
195	0xbd2a8127	-0.041627076
196	0xbd9e768d	-0.077374555
197	0x3d6ce7df	0.057838317
198	0xbdb9cd4e	-0.09072362
199	0x3d1af8bb	0.037834864
200	0xbd7f6670	-0.06235355
201	0x3dd1cac9	0.10243756
202	0x3e0317d0	0.12802052
203	0xbd3d2eef	-0.046187337
204	0xbc005c4c	-0.007834505
205	0x3d893652	0.06699814
206	0xbdedeea8	-0.11617786
207	0xbd9de198	-0.07709044
208	0xbe0b20e6	-0.13586769
209	0x3df9a5ac	0.121898025
210	0x3ca9f773	0.020747876
211	0xbd40a903	-0.047036182
212	0xbde00d9b	-0.10940095
213	0xbd10be6a	-0.035337843
214	0x3db209f5	0.086933054
215	0xbe095f5f	-0.13415287
216	0x3cc9a9a8	0.024617031
217	0xbdb48e7b	-0.088162385
218	0x3da971c6	0.08273654
219	0xbd051ccf	-0.032498177
220	0xbc9ba746	-0.01900066
221	0xbd9d34f5	-0.076761164
222	0x3d730644	0.059332147
223	0x3dcb36ba	0.09922548
224	0x3e02f2b9	0.12787904
225	0x3cc8d74e	0.024516728
226	0x3db3f13b	0.087862454
227	0xbda2e9bb	-0.07954737
228	0xbd3a461c	-0.045477018
229	0xbd87cc23	-0.06630733
230	0xbd0cebc2	-0.034404524
231	0x3d7e091e	0.062020414
232	0xbd414963	-0.047189128
233	0x3d7d6dc1	0.061872248
234	0x3d8d454c	0.06897983
235	0xbd05c820	-0.032661557
236	0xbb16421c	-0.0022927588
237	0x3cbee446	0.023302209
238	0x3de4efe5	0.11178569
239	0x3d66ff02	0.05639554
240	0xbdb2b48c	-0.08725843
241	0xbcb6c3e0	-0.022310197
242	0x3c54236a	0.0129478965
243	0x3d52b8b9	0.051445697
244	0x3d8f44e6	0.06995563
245	0x3d4d1956	0.05007299
246	0x3cbc4b63	0.022985166
247	0x3cf3a0f3	0.029739833
248	0xbd85ac4f	-0.06527006
249	0x3dafe04f	0.08587705
250	0xbdd1d347	-0.10245376
251	0x3d8f1193	0.06985774
252	0xbce7a4ca	-0.02827682
253	0x3db3356a	0.08750422
254	0xbd824e01	-0.06362534
255	0xbd68b4f9	-0.056813214

lstm.bias_ih_l0 f4 [256]
0	0x3d6a429e	0.057192437
1	0x3d54ad4e	0.05192309
2	0xbc42855a	-0.011872614
3	0xbd075e78	-0.033049077
4	0x3dc5d4e6	0.09659748
5	0xbd3dcd34	-0.046338275
6	0xbd327131	-0.04356498
7	0x3bb31072	0.005464607
8	0xbdc4df64	-0.09612921
9	0xbdee6782	-0.11640836
10	0x3d7e57ab	0.062095325
11	0x3dabc93e	0.08387993
12	0x3d83678f	0.064162366
13	0xbdb31a16	-0.0874521
14	0xbd18467d	-0.037176598
15	0xbd6e7d9f	-0.05822527
16	0xbdb0e123	-0.086366914
17	0xbd306e10	-0.043073714
18	0xbdf4f606	-0.11960988
19	0x3b69cfa6	0.0035676747
20	0x3de01645	0.109417476
21	0xbd36d936	-0.044640742
22	0xb98e10d0	-0.00027096877
23	0x3d667801	0.05626679
24	0xbd3b6a8a	-0.0457559
25	0x3dd9b0bf	0.10629415
26	0x3d60a47e	0.054844372
27	0xbd48e1af	-0.049043354
28	0xbda61594	-0.081095845
29	0x3cf72b12	0.030171905
30	0xbd62dd2f	-0.05538672
31	0x3defa32b	0.11701044
32	0x3de11af0	0.10991466
33	0xbd331129	-0.043717537
34	0xbda4097b	-0.08009621
35	0xbd4821c1	-0.048860315
36	0xbd5c6b93	-0.05381353
37	0xbdaa2bf4	-0.08309165
38	0xbe01aa11	-0.12662531
39	0xbe01d769	-0.12679829
40	0xbd725744	-0.059165254
41	0xbdff5c25	-0.12468747
42	0xbcac128d	-0.02100494
43	0xbcfa3f0a	-0.030547637
44	0x3d174d48	0.036938936
45	0x3c29e717	0.0103700375
46	0x3d7920b1	0.060822193
47	0x3d59609d	0.053070653
48	0x3d8f3463	0.06992414
49	0x3deac0d9	0.11462564
50	0x3dcf6e1e	0.10128425
51	0x3e061599	0.13094176
52	0x3d17acb6	0.037029944
53	0xbd70cb8b	-0.058787864
54	0x3d30569a	0.04305134
55	0xbd9b438e	-0.075812444
56	0x3d9da146	0.07696776
57	0xbd633abe	-0.055475943
58	0xbc2bf819	-0.010496163
59	0xbdca3dca	-0.098750666
60	0x3be85145	0.007089766
61	0x3d954647	0.07288795
62	0x3d7c28b0	0.06156224
63	0xbdd6c642	-0.104870334
64	0xbdd876b2	-0.10569514
65	0x3dbda68c	0.09260282
66	0x3da2e657	0.0795409
67	0xbcd2f811	-0.025753053
68	0xbd47610e	-0.048676543
69	0xbd76f310	-0.060290396
70	0xbd46cf05	-0.048537273
71	0xbd00470b	-0.03131775
72	0x3d98576c	0.074385494
73	0xbe04c096	-0.1296409
74	0xbd8b8382	-0.068121925
75	0xbcb01183	-0.021492725
76	0xbd9be213	-0.076114796
77	0xbdb84d62	-0.089991346
78	0xbcdeb1d9	-0.027184414
79	0xbdddb885	-0.1082621
80	0x3d884cc9	0.066552706
81	0xbd81282d	-0.06306491
82	0xbd94077b	-0.07227989
83	0x3db81237	0.08987849
84	0x3db47370	0.088110805
85	0xbda30186	-0.07959275
86	0xbcc2df90	-0.023788244
87	0x3e100aac	0.14066571
88	0x3d92d5a4	0.07169655
89	0xbd31ac48	-0.04337719
90	0xbe092b34	-0.13395387
91	0xbd66afa0	-0.056319833
92	0x3de94182	0.11389448
93	0xbd8de48c	-0.069283575
94	0x3d16a87c	0.036781773
95	0xbd11141e	-0.035419576
96	0xbd1fc7ca	-0.039008893
97	0x3dd16d07	0.102258734
98	0xbd566e9b	-0.052351575
99	0xbd9e6feb	-0.077361904
100	0x3dd887a1	0.10572744
101	0x3da6d3be	0.08145855
102	0xbd8d4771	-0.06898392
103	0x3ced07b3	0.028934335
104	0xbdac2d19	-0.08407039
105	0xbcd15a0f	-0.025555639
106	0x3c518c83	0.012789848
107	0x3d83972b	0.064253174
108	0x3d87beed	0.06628213
109	0xbd8e656a	-0.06952937
110	0x3e001e58	0.12511575
111	0x3dc2c3bd	0.0950999
112	0xbdc7dfb7	-0.09759467
113	0xbd54ee7a	-0.05198524
114	0xbc52dc5e	-0.012869922
115	0x3d204d98	0.0391365
116	0xbd92a74f	-0.07160818
117	0x3dc48108	0.09594923
118	0xbd9eb94b	-0.077501856
119	0xbdb29d2c	-0.087213844
120	0x3bd739d8	0.006568175
121	0xbdecdb6c	-0.11565289
122	0xbdfef30e	-0.12448703
123	0x3c8477dc	0.016170435
124	0xbd38105d	-0.04493748
125	0xbc8e75e3	-0.017390197
126	0xbdb4acec	-0.08822045
127	0xbccc8750	-0.024966866
128	0x3ccf7e96	0.025328916
129	0x3dbbccf9	0.09169955
130	0xbdcc6c3a	-0.0998158
131	0xbc73305b	-0.014843072
132	0x3d2f2e64	0.04276885
133	0x3dffdc4d	0.12493191
134	0xbcad2446	-0.02113546
135	0xbda60f6a	-0.08108409
136	0x3d1e3ba1	0.038631085
137	0xbd535418	-0.05159387
138	0xbd8d7f1e	-0.06909011
139	0xbcfd907e	-0.030952688
140	0xbdaccb62	-0.0843723
141	0x3df61d02	0.120172516
142	0x3d9de7ac	0.077102035
143	0xbd23c05a	-0.039978363
144	0xbdb3ce7a	-0.08779617
145	0x3d28564b	0.04109792
146	0x3d972df4	0.07381812
147	0x3d0afc9b	0.03393231
148	0x3ca12163	0.01966924
149	0x3d9e51c7	0.077304415
150	0xbdafc88b	-0.085831724
151	0xbda78595	-0.081797756
152	0x3ddf7700	0.10911369
153	0x3e0062a8	0.12537634
154	0xbd85b1b0	-0.06528032
155	0x3db42150	0.08795416
156	0xbd9c3f81	-0.076293
157	0xbd13b865	-0.036064524
158	0xbda7b20c	-0.081882566
159	0xbde67d39	-0.11254353
160	0x3d275e3f	0.040861364
161	0xbd5cb6c7	-0.053885248
162	0x3d13ff3a	0.036132075
163	0x3d4cbdf3	0.049985837
164	0x3d3d0eb7	0.04615661
165	0x3d6d4279	0.05792472
166	0xbdc01f50	-0.093809724
167	0x3db2c4ff	0.0872898
168	0xbdaa5382	-0.08316709
169	0x3bc97b0b	0.006148701
170	0xbd5732c5	-0.052538652
171	0xbd9345eb	-0.0719107
172	0x3c64353c	0.013928708
173	0x3d983b7b	0.0743322
174	0x3db7ce35	0.08974878
175	0xbcdaf3fe	-0.026727673
176	0x3d096504	0.0335436
177	0xbd96dd53	-0.07366433
178	0xbc852e1c	-0.016257338
179	0x3cace6e5	0.021106193
180	0xbe0c4064	-0.13696438
181	0xbdd4dfec	-0.10394272
182	0xbe131708	-0.14364254
183	0xbdb8f369	-0.09030802
184	0xbd76cf6c	-0.060256407
185	0xbd999d52	-0.075007096
186	0x3cd50bb5	0.026006559
187	0xbd4dc142	-0.050233133
188	0x3ceea7b4	0.029132701
189	0xbde83ce0	-0.11339736
190	0x3d4094c7	0.047016885
191	0xbd88ebed	-0.06685624
192	0xbcd324c9	-0.025774376
193	0x3b698a16	0.0035635284
194	0xbd1a241e	-0.0376321
195	0x39917511	0.00027743776
196	0xbda267d9	-0.079299636
197	0xbda3779d	-0.07981799
198	0x3be4fc64	0.006988095
199	0x3c602aca	0.013682077
200	0x3d06bc0e	0.032894187
201	0xbd2a857c	-0.041631207
202	0x3daa956c	0.08329281
203	0xbd5dc57d	-0.054143418
204	0x3c8cbed1	0.017180832
205	0x3d00a9b1	0.03141183
206	0xbdd28d18	-0.10280818
207	0xbd50609b	-0.05087338
208	0x3da4b9c8	0.080432475
209	0x3dd1154b	0.102091394
210	0x3b8b4cd4	0.004251102
211	0x3d998ed5	0.07497946
212	0x3de59e4f	0.112118356
213	0xbd68baa7	-0.05681863
214	0xbd8b32ca	-0.067967966
215	0xbd51b690	-0.051199496
216	0x3e09994e	0.13437387
217	0xbdb9a766	-0.09065132
218	0xbd9237ab	-0.07139524
219	0x3de0d12c	0.10977396
220	0x3dc1fcf1	0.09472073
221	0xbc76c414	-0.015061397
222	0xbcff9e88	-0.031203523
223	0x3d83eb48	0.06441361
224	0x3de93263	0.11386564
225	0x3d9ab80f	0.07554638
226	0x3d125f3f	0.035735365
227	0xbd721540	-0.059102297
228	0x3e09ccf1	0.13457085
229	0xbd4a27b5	-0.049354274
230	0x3db2e8da	0.08735819
231	0x3db9e37a	0.09076591
232	0x3c9c11f9	0.019051539
233	0x3d0d84b3	0.03455038
234	0x3db72100	0.08941841
235	0xbde98c01	-0.11403657
236	0x3de61423	0.112343095
237	0x3da22b70	0.07918441
238	0x3dbd45d0	0.09241831
239	0xbdd008d1	-0.101579316
240	0x3db9d56c	0.0907391
241	0x3dea8b5d	0.11452363
242	0x3dacc98d	0.0843688
243	0x3d9d48bc	0.076798886
244	0x3dd29fa2	0.10284354
245	0x3d9b8e14	0.075954586
246	0x3dcf6f5d	0.10128663
247	0xbda7fa16	-0.08201997
248	0xbd918c54	-0.071068436
249	0x3db058f1	0.08610714
250	0xbdded7e8	-0.108810246
251	0x3c754866	0.014970874
252	0x3b7ffeb7	0.0039061734
253	0x3d932565	0.07184867
254	0x3d42b38d	0.047534514
255	0xbd839ddb	-0.06426593

lstm.bias_hh_l0 f4 [256]
0	0x3d9befcb	0.07614096
1	0xbc96e383	-0.018419033
2	0xbdb2e5c8	-0.087352335
3	0x3bc77bfb	0.0060877777
4	0xbd9ff7cc	-0.078109354
5	0x3e02649f	0.12733696
6	0xbd24c6c5	-0.040228624
7	0xbda46b64	-0.08028296
8	0x3d1c2a98	0.038126558
9	0xbd52d3ac	-0.051471397
10	0x3dff7380	0.12473202
11	0xbd765a1f	-0.06014454
12	0xbd3f05b0	-0.046636283
13	0xbd50106a	-0.050796904
14	0xbd8631da	-0.06552477
15	0x3dde35c3	0.10850098
16	0x3d14449d	0.036198247
17	0xbda9d033	-0.08291664
18	0xbd61b0e3	-0.055100333
19	0xbdbcd8c8	-0.09221035
20	0x3d97a5d7	0.07404678
21	0x3d7897d6	0.060691677
22	0xbdfe26ca	-0.12409742
23	0xbdc724cf	-0.097238176
24	0x3d2fdbac	0.042934105
25	0xbde3011d	-0.11084197
26	0x3c5e1c11	0.013556496
27	0xbdc45351	-0.09586204
28	0xbdab0cae	-0.08352028
29	0xbbbba795	-0.0057267644
30	0xbdcb57b9	-0.09928841
31	0xbdcd2933	-0.10017624
32	0x3df2d7a8	0.118575394
33	0x3d2f3f04	0.042784706
34	0x3d9fd773	0.078047656
35	0xbda13d66	-0.07873039
36	0xbd9a2643	-0.07526829
37	0x3dea518c	0.11441335
38	0xbbdf0de8	-0.0068070777
39	0xbd28f3d4	-0.041248158
40	0x3cd5a017	0.026077313
41	0xbdd5c7fd	-0.10438535
42	0x3cef8cf1	0.02924201
43	0xbd8ed691	-0.06974519
44	0x3d6eba2d	0.05828302
45	0xbcdf51c6	-0.027260672
46	0xbdd1b59e	-0.10239719
47	0xbd6567fb	-0.056007367
48	0xbd56daf5	-0.052454907
49	0x3e0845fa	0.13307944
50	0x3cd3f6a2	0.02587444
51	0xbd925a51	-0.07146133
52	0x3dc6e191	0.09710992
53	0x3d9e2da7	0.07723551
54	0x3e0bbe89	0.13646902
55	0x3cbf121b	0.023324063
56	0x3d7a414a	0.06109742
57	0xbce21f5d	-0.027602846
58	0x3d798109	0.060914073
59	0xbdee5e50	-0.116390824
60	0xbd03d6b7	-0.03218719
61	0xbdc645d7	-0.0968129
62	0x3deec4de	0.11658643
63	0x3dc1ed0e	0.09469043
64	0xbd619604	-0.055074707
65	0x3dd923cc	0.10602531
66	0x3d4dc56b	0.0502371
67	0xbc26df0d	-0.010185015
68	0xbdc868d9	-0.09785623
69	0x3d4143ac	0.047183678
70	0x3daf8d26	0.08571844
71	0x3dc120c0	0.09430075
72	0x3cc865d3	0.024462616
73	0xbe0cbe30	-0.13744426
74	0xbdbe189c	-0.092820376
75	0x3e00045f	0.12501667
76	0x3bdde836	0.0067720665
77	0xbd73876c	-0.05945532
78	0x3c7fb47c	0.015606996
79	0xbdb275d5	-0.08713881
80	0xbd2187b7	-0.03943607
81	0xbd92328b	-0.071385466
82	0x3d2826b5	0.04105254
83	0xbdeff6bb	-0.11716982
84	0x3da601b0	0.081057906
85	0xbd68644e	-0.056736283
86	0x3d721693	0.05910356
87	0x3d796171	0.060883943
88	0xbd22e5ab	-0.03976981
89	0x3d1a1cfd	0.0376253
90	0xbcc66321	-0.02421719
91	0x3d7f5098	0.06233272
92	0x3d3a3830	0.04546374
93	0xbda81664	-0.08207396
94	0x3de7d8d7	0.11320656
95	0x3d3d1492	0.046162196
96	0x3dc21ce0	0.09478164
97	0xbdbd2c87	-0.092370085
98	0x3d3fcb29	0.046824608
99	0x3dc30a67	0.095234685
100	0xbd89b67d	-0.0672426
101	0xbbc717ff	-0.0060758586
102	0xbd9c009f	-0.07617306
103	0x3dcb4378	0.09924978
104	0x3d9d81f1	0.076908
105	0xbd93e5fb	-0.072216
106	0xbd6dd6ec	-0.058066294
107	0xbd6d7098	-0.057968706
108	0xbdafa99d	-0.08577273
109	0xbd103fd5	-0.035217125
110	0x3dbcdb76	0.09221546
111	0x3d4e8e50	0.05042869
112	0xbdfab184	-0.1224089
113	0x3da876fc	0.082258195
114	0xbc5c37ae	-0.013441009
115	0x3d86668a	0.065625265
116	0x3cf41f3e	0.029800054
117	0x3a285248	0.0006420952
118	0x3df1dd0f	0.11809742
119	0x3d94e840	0.07270861
120	0xbd810caf	-0.06301247
121	0x3dc702ae	0.09717308
122	0x3dc3d710	0.09562504
123	0x3de68c3c	0.11257216
124	0xbdbc6b8e	-0.09200202
125	0x3d6c6ff3	0.05772395
126	0x3bc37a6c	0.0059655216
127	0xbbabeddb	-0.0052468604
128	0xbddcf484	-0.10788825
129	0x3d5b6a34	0.05356808
130	0xbb9f21e5	-0.0048563355
131	0x3d5ad61b	0.053426843
132	0xbe011fb2	-0.12609747
133	0xbd3d3d66	-0.046201132
134	0x3e0f6a4a	0.1400539
135	0xbde51b2c	-0.11186823
136	0xbde4d815	-0.11174027
137	0x3b4ae59e	0.0030959616
138	0x3daed1a0	0.085360765
139	0xbd90fec8	-0.07079846
140	0x3d906bd8	0.070518196
141	0xbd99928c	-0.07498655
142	0xbdacdfe1	-0.08441139
143	0x3b6ba297	0.0035955065
144	0x3ccfd168	0.025368407
145	0x3df33d2f	0.11876904
146	0x3d4d913c	0.050187334
147	0xbc3783d9	-0.0112008685
148	0xbdbf5fd8	-0.093444526
149	0x3db5f5f7	0.08884805
150	0xbcff9585	-0.031199226
151	0xbdaf8bff	-0.08571624
152	0x3dd328d6	0.10310523
153	0x3a77fa8b	0.0009459636
154	0xbdb6f7cc	-0.08933982
155	0xbbee238c	-0.007267421
156	0xbd889489	-0.06668956
157	0x3d6c535e	0.057696693
158	0xbd424994	-0.04743345
159	0xbde8852b	-0.11353525
160	0x3cb8b4e6	0.022547197
161	0xbd85bf74	-0.065306574
162	0xbdb12528	-0.08649665
163	0xbd34d223	-0.044145714
164	0x3d82a1b4	0.06378499
165	0x3cdd4371	0.027009698
166	0x3d651d25	0.055935998
167	0x3d283cb7	0.041073527
168	0x3cafb50d	0.021448636
169	0x3c8f1d50	0.017470032
170	0x3da47d8f	0.08031761
171	0xbdd366b7	-0.10322326
172	0xbdf8cbdc	-0.12148258
173	0x3d9a2f35	0.07528535
174	0x3cf777bb	0.03020846
175	0x3df3a15c	0.11896011
176	0x3d3d4e5f	0.04621732
177	0xbd86ac83	-0.06575873
178	0x3beef44e	0.007292307
179	0x3e0afe53	0.1357358
180	0xbde103b1	-0.10987032
181	0xbd599357	-0.05311903
182	0xbc93a300	-0.01802206
183	0xbd9d4817	-0.07679766
184	0xbc1b813c	-0.009491261
185	0x3cc4960a	0.023997325
186	0xbdbf5bbe	-0.0934367
187	0x3de4d95b	0.1117427
188	0xbb8c23f9	-0.004276749
189	0x3da30c5a	0.0796134
190	0xbe067757	-0.13131462
191	0x3d7fb58c	0.062428996
192	0xbc41ef74	-0.011836875
193	0xbc339ee5	-0.010963176
194	0x3de72542	0.11286403
195	0x3d7ed02d	0.06221025
196	0x3da4ebed	0.08052812
197	0x3dace867	0.08442765
198	0xbd6ad1a6	-0.057328843
199	0xbd989969	-0.07451136
200	0xbd157543	-0.036488783
201	0xbce96a7b	-0.028493157
202	0x3dbc242a	0.09186585
203	0xbd33653e	-0.043797724
204	0xbd135aa0	-0.0359751
205	0x3d9fd0b0	0.07803476
206	0x3dd57128	0.104219735
207	0xbcbe0c1b	-0.023199132
208	0xbd3f7d2e	-0.04675024
209	0xbdd5726f	-0.10422217
210	0xbd086898	-0.033302873
211	0x3db8c96b	0.090227924
212	0xbdb75589	-0.089518614
213	0x3da5e6a0	0.08100629
214	0x3c075c33	0.008261728
215	0x3d63acd6	0.05558475
216	0x3dd2c09a	0.10290642
217	0xbdd2e04c	-0.102966875
218	0x3d8ef9ad	0.069812156
219	0xbc164a33	-0.009172964
220	0xbd2e340d	-0.04253011
221	0x3dd1553e	0.10221337
222	0xbc6f58e0	-0.014608592
223	0x3dcdcb35	0.10048524
224	0xbde229ed	-0.11043153
225	0xbc93661e	-0.01799303
226	0xbd896f3d	-0.0671067
227	0xbd910a24	-0.07082012
228	0x3cbdb0d4	0.023155607
229	0x3956069c	0.00020411093
230	0xbdfed377	-0.124426775
231	0x3bffae27	0.007802743
232	0xbcc4d896	-0.024029057
233	0x3dd2da00	0.102954865
234	0x3d918b5b	0.07106658
235	0xbcad081b	-0.021122029
236	0xbd1ce412	-0.038303442
237	0xbd62efe9	-0.055404577
238	0xbdd6188e	-0.10453902
239	0xbda5488d	-0.080704786
240	0x3d4b3e32	0.04961986
241	0x3d283366	0.041064642
242	0xbd8130a3	-0.06308105
243	0xbdb745f4	-0.089488894
244	0xbce9e427	-0.028551174
245	0x3de08f6d	0.10964856
246	0x3c79c0ea	0.015243748
247	0x3ddb387e	0.107041344
248	0x3dd769a7	0.105181985
249	0xbd5e1222	-0.05421651
250	0x3da7d8a2	0.08195616
251	0xbdeb792b	-0.1149772
252	0x3be58a59	0.0070050177
253	0xbd9049b5	-0.070453085
254	0xbd234b03	-0.03986646
255	0x3dac637d	0.084174134

lstm.weight_ih_l1 f4 [256, 64]
0	0xbbf5ed3d	-0.0075050876
1	0x3c7f203b	0.015571649
2	0x3d316cc9	0.043316636
3	0x3d1b1fec	0.03787224
4	0xbcb0e475	-0.021593312
5	0xbde53ee8	-0.11193639
6	0xbc6c288f	-0.014413967
7	0xbddeb182	-0.10873701
8	0x3ca25709	0.019816892
9	0x3da94bca	0.08266409
10	0xbdb40bcb	-0.08791312
11	0xbcc2263a	-0.023699868
12	0x3e02037e	0.12696645
13	0xbdbd55fe	-0.09244917
14	0x3c84ca86	0.016209852
15	0xbd435c76	-0.0476956
16	0x3d7ce20c	0.061739013
17	0x3dd5657d	0.10419748
18	0x3df4fe07	0.11962514
19	0x3d46ad8d	0.048505355
20	0x3d1854a8	0.03719011
21	0xbdb4c70a	-0.08827026
22	0x3d9d12cc	0.07669601
23	0xbdaf61b9	-0.08563561
24	0x3a99d407	0.0011736163
25	0x3c268d43	0.010165515
26	0xbd6c7f17	-0.05773839
27	0xbdc1c0ec	-0.09460625
28	0x3dd3c8c8	0.1034103
29	0xbdae8215	-0.08520905
30	0xbdce925a	-0.10086508
31	0x3dd78735	0.105238356
32	0xbc0e4778	-0.008684032
33	0xbda839a6	-0.082141206
34	0xbdcac777	-0.09901326
35	0xbdde0999	-0.10841674
36	0x3d849d4a	0.06475313
37	0x3dca7b70	0.09886825
38	0xbd291daf	-0.041288074
39	0xbd0ccec7	-0.034376886
40	0xbd09feaa	-0.033690132
41	0x3d91f6d5	0.071271576
42	0xbc4e34a2	-0.012585791
43	0x3de184d8	0.11011666
44	0x3d24e5a3	0.04025806
45	0xbd0875e8	-0.03331557
46	0xbca780ee	-0.02044722
47	0x3ccb5144	0.024819024
48	0xbd70ce95	-0.058790762
49	0x3d2f95cd	0.04286747
50	0xbd989e11	-0.07452024
51	0x3db12294	0.086491734
52	0xbd718138	-0.058961123
53	0xbd5361d5	-0.05160697
54	0x3bcabf55	0.0061873593
55	0x3d10790a	0.03527168
56	0x3d28254a	0.041051187
57	0x3b8ee996	0.0043613417
58	0xbdb5c5b2	-0.08875598
59	0xbca31e9c	-0.019912057
60	0xbb8ae638	-0.00423887
61	0x3da4b42a	0.08042176
62	0xbd5c0872	-0.05371899
63	0xbc6c83f1	-0.014435754
64	0xbd052efe	-0.03251552
65	0x3d920390	0.07129586
66	0xbd6c8a0b	-0.057748836
67	0x3dbda12b	0.09259256
68	0xbdb23219	-0.087009616
69	0x3e08370d	0.1330225
70	0xbda0cd78	-0.0785169
71	0xbdae1964	-0.085009366
72	0xbdccc290	-0.09998047
73	0x3d9b4418	0.07581347
74	0x3d3c8d7f	0.04603338
75	0xbd09bf2e	-0.03362959
76	0xbdb057e4	-0.08610514
77	0xbd3294bf	-0.043598887
78	0x3df1c3ea	0.11804946
79	0xbd244bf5	-0.0401115
80	0xbd5f4da0	-0.05451739
81	0x3b20cbaa	0.0024535456
82	0xbd984753	-0.07435479
83	0xbdc6d2a3	-0.097081445
84	0x3daf6656	0.08564441
85	0x3d367fbe	0.04455542
86	0x3c15e1ff	0.00914812
87	0x3cdacade	0.026708063
88	0x3dc909d0	0.09816325
89	0x3defa4cf	0.117013566
90	0xbde34d52	-0.11098732
91	0x3d83e432	0.06440009
92	0x3daf646c	0.08564076
93	0xbd9d91b1	-0.07693804
94	0x3c84c3d1	0.016206654
95	0x3d4c7b86	0.04992249
96	0xbdd7348a	-0.10508068
97	0xbdc2c67d	-0.09510515
98	0xbc6f9851	-0.014623717
99	0xbcc7ab11	-0.024373563
100	0x3d2d4417	0.042301264
101	0x3d30e893	0.04319055
102	0x3e085c2b	0.1331641
103	0xbc5c369d	-0.013440755
104	0xbdb8984d	-0.09013424
105	0xbcf7cf0f	-0.0302501
106	0xbdcc3721	-0.099714525
107	0xbd37c753	-0.044867825
108	0xbdc84842	-0.09779407
109	0x3d42ca85	0.04755642
110	0xbdb6b6e2	-0.08921601
111	0xbd1b4f5f	-0.03791749
112	0x3d75dc6d	0.060024668
113	0xbdb9c42c	-0.0907062
114	0x3d1ba35c	0.03799759
115	0x3de6994b	0.11259707
116	0xbc9211f1	-0.01783082
117	0x3d7d3ecb	0.061827462
118	0x3c9e285d	0.019306356
119	0xbe0749d2	-0.13211754
120	0x3d448f2f	0.047988113
121	0x3d875a9e	0.06609081
122	0x3d496fe9	0.04917899
123	0x3df28f6b	0.11843761
124	0x3db83a29	0.08995468
125	0xbd819b36	-0.06328432
126	0xbda6c5b6	-0.08143179
127	0x3dd7f31d	0.10544417
128	0x3da1b788	0.07896334
129	0xbdc263c8	-0.09491688
130	0x3d897da0	0.06713414
131	0xbd0cc6d6	-0.034369312
132	0x3cbb077e	0.022830721
133	0xbdb2d9a4	-0.08732918
134	0x3d07bd22	0.033139355
135	0x3df8c21d	0.12146399
136	0x3ce2fb7e	0.027707811
137	0xbda94e57	-0.08266895
138	0xbda21ec6	-0.07916026
139	0xbddb3b15	-0.107046284
140	0xbdcb0a4a	-0.09914072
141	0x3e0b0e63	0.13579707
142	0x3acaddf8	0.0015477529
143	0xbe0ce16c	-0.13757867
144	0x3dc49e4a	0.09600504
145	0xbced5ec2	-0.028975848
146	0xbcbe71df	-0.023247657
147	0xbc9d0fc0	-0.01917255
148	0xbd6ea7ce	-0.0582655
149	0xbdf9d02c	-0.12197909
150	0x3dce0dc2	0.10061218
151	0x3d3b3d00	0.04571247
152	0x3cb37d0a	0.02191021
153	0xbd7167dc	-0.05893694
154	0xbdd7bd63	-0.105341695
155	0xbda99cb0	-0.08281839
156	0xbdd9b4d1	-0.10630191
157	0xbd06a0bd	-0.032868136
158	0xbdc58873	-0.09645166
159	0x3acc7584	0.0015598987
160	0x3b3c918b	0.0028773274
161	0x3c3d8436	0.011567166
162	0x3c9b3007	0.0189438
163	0xbb5a0e67	-0.0033272745
164	0x3dca4083	0.09875586
165	0x3da5ee6e	0.081021175
166	0xbdadf973	-0.08494844
167	0xbc6b22e0	-0.014351577
168	0x3d1e8dd1	0.038709465
169	0x3ddc7277	0.1076402
170	0x3df478c7	0.11937099
171	0x3d6296f7	0.055319753
172	0x3dac4259	0.08411092
173	0x3dec2c51	0.1153189
174	0x3dd7d1f7	0.105380945
175	0x3c80fc96	0.015745442
176	0xbdd0805d	-0.10180733
177	0xbd1d5762	-0.038413413
178	0x3dadded2	0.08489765
179	0x3dd04d66	0.101710126
180	0x3db2a405	0.087226905
181	0xbdd55bdd	-0.10417912
182	0x3d8d6e31	0.06905783
183	0xbd966dae	-0.073451385
184	0x3d426720	0.04746163
185	0xbd150f4a	-0.036391534
186	0x3d8a8d59	0.06765241
187	0x3d8b6eb2	0.06808223
188	0xbdf65b81	-0.12029172
189	0xbdf63fcc	-0.12023887
190	0xbaec8161	-0.0018043929
191	0xbdad5a1d	-0.08464453
192	0xbddaa74b	-0.1067644
193	0x3dc61bb2	0.09673251
194	0x3d172bdd	0.036907066
195	0x3c8e881e	0.01739889
196	0xbd891a6d	-0.066944934
197	0xbd9b3a59	-0.07579488
198	0x3da92e8a	0.0826083
199	0xbdfbf77a	-0.12303062
200	0xbd826244	-0.06366399
201	0xbc94404d	-0.018097067
202	0x3e027055	0.12738164
203	0x3c3a8dc4	0.011386339
204	0x3df10d7d	0.11770151
205	0xbd8207af	-0.06349122
206	0x3dd4fe12	0.104000226
207	0x3c215eb4	0.009849239
208	0x3d47b6ad	0.048758198
209	0xbdb3a257	-0.08771198
210	0xbd6da9cf	-0.05802327
211	0x3def0517	0.11670893
212	0xbd991924	-0.07475498
213	0xbc1a7b53	-0.009428817
214	0x3d45eb06	0.04831984
215	0x3c6ba14e	0.01438172
216	0xbcc29576	-0.02375291
217	0xbdd9eddb	-0.106410705
218	0x3db7e9f5	0.08980171
219	0xbd95755e	-0.07297777
220	0xbdb1b055	-0.08676211
221	0xbdbbf1f5	-0.09177009
222	0x3d999b09	0.07500274
223	0xbd9c1ced	-0.07622705
224	0xbdd944f1	-0.10608853
225	0xbb1b9bef	-0.0023744067
226	0xbdc32d1b	-0.095300876
227	0x3cb76e06	0.02239133
228	0x3d0a88de	0.033821933
229	0xbd373fe3	-0.04473866
230	0x3dd08d3a	0.10183187
231	0x3d99b8f1	0.07505978
232	0x3add43cc	0.0016881167
233	0xbd60e999	-0.054910276
234	0x3cd5b70c	0.02608826
235	0x3d87efc7	0.06637531
236	0xbdb9b7a6	-0.09068231
237	0xbd88fdf1	-0.066890605
238	0x3d5e8928	0.05433002
239	0xbd818ddf	-0.06325888
240	0x3dd5212e	0.10406719
241	0x3dc6bd91	0.09704126
242	0x3d54927b	0.051897507
243	0xbdab974a	-0.083784655
244	0x3d882434	0.0664753
245	0xbdfd091d	-0.12355254
246	0xbd587779	-0.052848313
247	0xbdf73a76	-0.120716974
248	0x3d1e293d	0.038613547
249	0x3ca5d372	0.020242427
250	0x3c7fcebc	0.015613254
251	0xbc676bdb	-0.014124836
252	0x3ce95802	0.028484348
253	0x3c191990	0.0093444735
254	0xbdefa0e7	-0.117006116
255	0xbdc62a16	-0.09675996

lstm.weight_hh_l1 f4 [256, 64]
0	0x3ce15b4a	0.02750935
1	0xbdac3179	-0.08407874
2	0xbcd5f0d2	-0.026115809
3	0x3d6eae7f	0.05827188
4	0xbcfb1224	-0.030648299
5	0xbdc6573b	-0.09684607
6	0x3d5d1766	0.053977393
7	0xbdc33ff6	-0.09533684
8	0x3da470fa	0.08029361
9	0xbdeca68c	-0.11555204
10	0xbdb27956	-0.08714549
11	0xbdfddaac	-0.12395224
12	0xbd761af4	-0.0600843
13	0xbdf52036	-0.119690344
14	0xbdbf9c32	-0.09355964
15	0x3d8a7a8a	0.06761654
16	0xbd673565	-0.056447405
17	0xbdc79d9f	-0.09746861
18	0x3decd3f5	0.11563865
19	0xbc1443f3	-0.0090494035
20	0x3d33a109	0.043854747
21	0x3d895313	0.06705298
22	0xbce8ff14	-0.028441943
23	0xbdad163a	-0.08451505
24	0x3d7b0052	0.061279602
25	0x3c8c02d1	0.017091187
26	0xbdce0b2e	-0.10060726
27	0xbcaabebb	-0.0208429
28	0x3d805d5a	0.062678054
29	0xbd098e55	-0.033583004
30	0x3d20a26d	0.0392174
31	0xbcddd3db	-0.02707856
32	0x3cd1c61e	0.025607165
33	0xbbf92d65	-0.0076042884
34	0xbd92d6e2	-0.07169892
35	0xbde0b6e8	-0.109723866
36	0x3ddb50ee	0.107087955
37	0x3d43bbea	0.04778663
38	0xbc481753	-0.012212592
39	0xbde140f3	-0.10998716
40	0x3dc134d8	0.09433907
41	0xbdc7cf65	-0.09756354
42	0x3d0c9f0a	0.03433136
43	0xbd688455	-0.056766827
44	0xbdd5a7a1	-0.10432363
45	0x3d551c28	0.052028805
46	0x3d0ad3e7	0.033893492
47	0xbd421fca	-0.047393598
48	0xbda51eaf	-0.08062493
49	0xbd949cb3	-0.072564505
50	0xbd7feb39	-0.062480185
51	0x3d23e1fd	0.04001044
52	0x3dbac1ec	0.09119019
53	0xbdce03a9	-0.10059292
54	0xbdd5a162	-0.10431172
55	0xbd3f5021	-0.046707276
56	0xbc1dcc77	-0.009631268
57	0x3d657dad	0.056028057
58	0x3c37a9f3	0.011209953
59	0x3db742f0	0.08948314
60	0xbc9184f4	-0.017763592
61	0xba968bc0	-0.001148574
62	0x3de7989d	0.113084055
63	0x3c1c8a4e	0.009554459
64	0x3d93f5a0	0.072245836
65	0x3dfe2010	0.12408459
66	0xbb357950	-0.0027690716
67	0xbda6e9fe	-0.08150099
68	0xbdc0ff2f	-0.094236724
69	0xbd9c6c4b	-0.07637843
70	0xbc5be239	-0.013420635
71	0xbcc3bc4a	-0.023893494
72	0xbc8d9431	-0.017282577
73	0xbd8d748c	-0.06906995
74	0x3d8ac50c	0.06775865
75	0xbdb324a2	-0.087472215
76	0xbe0a137b	-0.13483994
77	0x3e0085b2	0.12551
78	0x3da3940e	0.079872236
79	0xbba29ffe	-0.00496292
80	0xbd5dd842	-0.054161318
81	0xbc443954	-0.011976559
82	0x3dc13499	0.0943386
83	0x3d58d714	0.05293949
84	0xbd88aba1	-0.066733606
85	0xbdc1b56f	-0.09458434
86	0x3e0e2d9b	0.13884585
87	0x3ca5bb1d	0.020230824
88	0xbd547868	-0.05187264
89	0x3b5c07e4	0.003357404
90	0xbcd01edc	-0.02540534
91	0xbcd4d5e7	-0.025980903
92	0x3da7cf13	0.08193793
93	0x3d1c8184	0.038209453
94	0xbe0613e6	-0.13093528
95	0x3ccf2f2c	0.025291048
96	0x3c09b910	0.008405939
97	0xbd04f4e6	-0.032460116
98	0x3c389d96	0.01126804
99	0xbd061afb	-0.032740574
100	0x3d5ef2ec	0.054430887
101	0xbce837c1	-0.028346898
102	0x3dc8cdfc	0.098049134
103	0xbd9d6637	-0.076855116
104	0x3c7633f5	0.015027036
105	0xbdf75032	-0.12075843
106	0x3dd153db	0.10221072
107	0x3cc3203a	0.023819078
108	0xbdd4505e	-0.10366891
109	0x3d1ed264	0.038774863
110	0x3de94efa	0.11392017
111	0x3db4f983	0.08836653
112	0x3d656c85	0.056011695
113	0xbc57f9e8	-0.013182141
114	0xbda74dd8	-0.081691444
115	0x3c898597	0.016787333
116	0x3d8ebf4a	0.06970079
117	0x3e0bbd0a	0.13646331
118	0x3cb98258	0.02264516
119	0x3d8c5815	0.06852738
120	0x3d8cabad	0.06868682
121	0xbd9b0980	-0.07570171
122	0xbdd64111	-0.10461629
123	0x3ce32b4d	0.027730608
124	0x3d9b1055	0.075714745
125	0x3d71de73	0.059050035
126	0xbca098b3	-0.019604063
127	0x3d308320	0.0430938
128	0x3d82af57	0.063811
129	0xbe04eea0	-0.12981653
130	0x3d322f92	0.043502398
131	0xbd8e5fe5	-0.06951884
132	0xbd1ef726	-0.038809918
133	0xbd151793	-0.036399435
134	0xbd569941	-0.052392248
135	0xbd958568	-0.07300836
136	0xbdd86d05	-0.10567669
137	0xbb86bf5d	-0.0041121677
138	0x3c688e4b	0.014194082
139	0x3d45584c	0.04817991
140	0x3ca801a2	0.020508591
141	0xba17aa1c	-0.0005785541
142	0xbdc9e3a0	-0.09857869
143	0xbdc0ef24	-0.094206125
144	0xbdd2e59a	-0.10297699
145	0x3de5014d	0.11181889
146	0x3dbca5fc	0.092113465
147	0x3d29c505	0.041447658
148	0xbe0010d3	-0.12506418
149	0xbdc7f853	-0.09764161
150	0xbdea36f7	-0.11436265
151	0x3d1f39bc	0.03887342
152	0xbc5a41f9	-0.013321393
153	0xbd6566d0	-0.056006253
154	0x3d84d61b	0.0648615
155	0x3d183d55	0.037167866
156	0xbd082aa3	-0.033243787
157	0xbc76840b	-0.01504613
158	0xbdde9211	-0.10867704
159	0xbdf0ae03	-0.1175194
160	0x3dcd71d5	0.10031477
161	0x3daea6cd	0.085279085
162	0x3d9a1024	0.0752261
163	0x3c58efff	0.013240813
164	0x3d4e83f0	0.050418794
165	0x3dc6289e	0.09675716
166	0x3dc87879	0.09788603
167	0x3d0a2f93	0.033736777
168	0xbc94a6a9	-0.018145876
169	0xbda44433	-0.080208205
170	0x3caaca27	0.020848347
171	0xbde48d79	-0.11159796
172	0xbcb6f261	-0.022332372
173	0xbda2659d	-0.079295374
174	0xbde987b7	-0.11402839
175	0xbc28f2ff	-0.010311841
176	0xbe09a1db	-0.13440649
177	0xbd8dc1fb	-0.069217645
178	0xbd75cce1	-0.06000984
179	0xbd0e0f65	-0.03468265
180	0x3d061b87	0.032741096
181	0x3aa50628	0.0012590336
182	0x3dc1590e	0.09440814
183	0x3dc3cc54	0.09560457
184	0x3db17395	0.08664624
185	0xbd7e768c	-0.062124774
186	0x3d073b47	0.033015516
187	0x3dc588b1	0.096452124
188	0x3dbbbe64	0.091671735
189	0xbdf5fc8a	-0.12011059
190	0xbc825582	-0.015909914
191	0x3cd380f7	0.025818331
192	0xbdd3aeb5	-0.10336057
193	0x3dca5217	0.09878939
194	0xbd094ccb	-0.0335205
195	0xbd0625c4	-0.03275086
196	0xbcfbccd3	-0.030737316
197	0x3de320b0	0.11090219
198	0x3c8c6ea9	0.01714261
199	0x3df659cf	0.120288484
200	0x3ca71378	0.020395026
201	0xbdc0e7dc	-0.09419224
202	0x3df8d06b	0.121491276
203	0x3dc91b0b	0.09819611
204	0xbc406546	-0.0117428955
205	0xbdd0d16e	-0.101961955
206	0x3ce28583	0.027651554
207	0x3dc4fc86	0.096184775
208	0xbd684adc	-0.056712016
209	0xbd972f0e	-0.07382022
210	0xbcdbe03c	-0.026840322
211	0x3c8118db	0.015758922
212	0xbd589473	-0.052875947
213	0x3de1683d	0.1100621
214	0x3d8dbd7b	0.06920906
215	0xbd941665	-0.07230834
216	0x3da07865	0.078354634
217	0xbd41df40	-0.04733205
218	0x3d670d10	0.05640894
219	0x3d9da46d	0.07697377
220	0x3dfc3d56	0.123163864
221	0x3bf2cb60	0.007409498
222	0x3d85bdfc	0.06530377
223	0xbd99d618	-0.07511538
224	0xbcf52a89	-0.029927509
225	0x3dcf02bb	0.10107943
226	0x3c8d21dd	0.017228061
227	0xbd5c4398	-0.0537754
228	0x3d57efee	0.05271905
229	0xbde5b5bf	-0.11216306
230	0x3d130c01	0.03590012
231	0xbda73e67	-0.08166199
232	0x3db6f514	0.08933464
233	0xbdb304c3	-0.087411426
234	0x3a99b78e	0.0011727677
235	0xbd555b7f	-0.05208921
236	0xbd917d16	-0.071039364
237	0x3bc16af8	0.0059026442
238	0xbd5dae6e	-0.054121427
239	0xbbdc279b	-0.0067185885
240	0x3dae81dc	0.085208625
241	0x3dda1239	0.10648007
242	0x3d6a6e6d	0.057234216
243	0x3dc60f63	0.096709035
244	0xbdc42925	-0.0957816
245	0xbd8ad65e	-0.067791685
246	0x3df10913	0.11769309
247	0x3d898c26	0.06716184
248	0xbbc198b9	-0.0059080985
249	0xbddc2d01	-0.10750771
250	0xbdd0c594	-0.10193935
251	0x3dc95a26	0.098316476
252	0x3dbdd829	0.09269745
253	0x3da1f275	0.07907573
254	0x3df7e3ea	0.12104018
255	0xbc9be997	-0.019032283

lstm.bias_ih_l1 f4 [256]
0	0x3d95e21f	0.0731852
1	0x3ceefcc2	0.029173259
2	0x3de67099	0.11251945
3	0x3ab6af1b	0.0013937684
4	0x3dad72a2	0.0846913
5	0x3db864ad	0.090035774
6	0x3c8c368b	0.017115852
7	0xbd4510ae	-0.04811161
8	0x3ddfe90a	0.109331205
9	0x3da1e056	0.07904117
10	0xbc33f25f	-0.010983079
11	0x3d681906	0.05666449
12	0x3d4a4690	0.0493837
13	0xbdc4835a	-0.09595366
14	0xbd93f252	-0.07223953
15	0x3c6ec405	0.014573102
16	0xbd09270c	-0.033484504
17	0x3d81cf14	0.06338325
18	0x3d26acf8	0.0406923
19	0x3d83f528	0.06443244
20	0x3daf1013	0.08547988
21	0x3d594d9a	0.053052522
22	0xbdb21b75	-0.08696643
23	0xbdd21c8d	-0.10259352
24	0xbca375cb	-0.019953629
25	0x3d2062be	0.039156668
26	0xbdbe9af8	-0.09306902
27	0x3d8941c9	0.06702001
28	0x3e03594c	0.12827033
29	0x3d731f3b	0.059355956
30	0x3c50a42f	0.012734457
31	0xbdcb912f	-0.09939801
32	0x3e03d123	0.12872748
33	0x3d0df2bf	0.03465533
34	0x3df0d0d7	0.11758583
35	0xbde084ab	-0.109628044
36	0x3cefc136	0.029266935
37	0xbdc27fcd	-0.09497032
38	0xbcb1ef79	-0.021720635
39	0xbda3f501	-0.08005715
40	0xbd76dd7f	-0.06026983
41	0xbcdc8157	-0.026917143
42	0xbda94447	-0.08264976
43	0x3dd24d9b	0.10268708
44	0x3de88175	0.11352817
45	0x3d698b2f	0.0570175
46	0xbdd8e791	-0.10591043
47	0x3ccc6470	0.024950236
48	0xbd7111f6	-0.05885502
49	0xbc413e32	-0.011794614
50	0xbd9e5209	-0.07730491
51	0xbd009eb8	-0.031401366
52	0x3db1accd	0.08675537
53	0x3c8d8771	0.017276498
54	0xbb46014b	-0.0030213173
55	0x3e075e40	0.13219547
56	0xbd05e43a	-0.032688357
57	0xbd0a335d	-0.03374039
58	0xbd7f4782	-0.062324055
59	0xbdec74e1	-0.115457304
60	0x3e04f707	0.12984858
61	0x3d4bc155	0.049744923
62	0x3e0a3790	0.13497758
63	0xbdb753de	-0.08951543
64	0x3c9fc73a	0.019504178
65	0xbd1ff977	-0.039056268
66	0xbdc5ee34	-0.09664574
67	0x3c10facb	0.008848856
68	0x3d24f33e	0.040271036
69	0xbce86d71	-0.028372498
70	0x3dbea1ac	0.0930818
71	0x3d8c4707	0.06849485
72	0xbc02d124	-0.007984433
73	0xbdf8a349	-0.12140519
74	0xbdc15786	-0.09440522
75	0x3d90a775	0.0706319
76	0xbdfc143a	-0.123085454
77	0x3dbd4ef1	0.092435725
78	0x3d9fc8dc	0.07801983
79	0xbd3e9e6f	-0.046537813
80	0xbd3169cc	-0.043313786
81	0x3e0353b3	0.12824897
82	0x3dcc2a9f	0.09969067
83	0x3d12c203	0.035829555
84	0x3dda53f6	0.106605455
85	0x3de1c9e7	0.11024838
86	0x3d972801	0.07380677
87	0xbd81f690	-0.06345856
88	0xbd6c8e07	-0.057752635
89	0xbe049827	-0.12948667
90	0x3e08aa19	0.13346137
91	0xbd91b9c0	-0.07115507
92	0x3bb49bf9	0.0055117575
93	0xbdcf483d	-0.101212
94	0x3db98f64	0.09060553
95	0x3d984326	0.074346825
96	0xbc3cda9e	-0.011526732
97	0x3e03f36b	0.12885825
98	0x3d9aa5d5	0.07551161
99	0x3d38802e	0.045044117
100	0x3d9ba3a6	0.07599573
101	0x3dea4604	0.11439136
102	0x3d1e39b0	0.038629234
103	0x3ddad6f0	0.10685527
104	0xbd878d8d	-0.066187955
105	0xbe06feee	-0.13183185
106	0x3d8c0b0e	0.06838046
107	0x3cdef8c1	0.027218224
108	0xbdafc4fd	-0.085824944
109	0xbd9707f9	-0.073745675
110	0x3d2872dd	0.041125167
111	0xbc70d99c	-0.01470032
112	0x3c9f0913	0.019413507
113	0x3d835fc6	0.06414752
114	0x3d3a198a	0.045434512
115	0x3dce63b7	0.10077613
116	0x3dc580c4	0.09643701
117	0xbe0899c7	-0.13339911
118	0xbbaa48c6	-0.0051966636
119	0xbcc1c344	-0.02365268
120	0x3c8f9c45	0.01753057
121	0xbb972808	-0.0046129264
122	0x3b7a43f7	0.0038187483
123	0xbd829f32	-0.0637802
124	0x3d75f802	0.06005097
125	0xbaebc0f1	-0.0017986578
126	0x3e0b9acf	0.13633274
127	0xbd888904	-0.06666759
128	0x3cc245bd	0.023714894
129	0x3dc6f702	0.09715082
130	0xbd68dcf8	-0.056851357
131	0xbd2dbe2f	-0.0424177
132	0x3dcf8523	0.10132816
133	0x3d08644e	0.033298783
134	0xbdbf8ea3	-0.09353378
135	0x3d1aafb5	0.037765224
136	0x3cddd8d1	0.027080925
137	0xbdae6298	-0.08514899
138	0x3df918a6	0.121629044
139	0x3cda093a	0.026615728
140	0xbdd1ba2d	-0.10240588
141	0x3dc52da4	0.09627846
142	0x3c9f523a	0.019448388
143	0x3dcdfa07	0.100574546
144	0x3bc48afe	0.0059980145
145	0xbd24a2a1	-0.040194158
146	0x3d58cc2d	0.052929092
147	0x3dd8b4e2	0.10581376
148	0x3d32b31f	0.043627854
149	0x3d9878c4	0.07444909
150	0x3e12db7d	0.1434154
151	0x3db1369a	0.086529925
152	0x3d74c27b	0.059755784
153	0x3d1d708f	0.038437422
154	0xbdede273	-0.116154574
155	0x3dc624f5	0.09675018
156	0x3d7601c3	0.060060274
157	0xbd84b0c8	-0.06479031
158	0x3d2a863f	0.041631933
159	0x3cf62e4a	0.03005137
160	0xbe1229fc	-0.14273828
161	0xbc94278a	-0.01808526
162	0xbdea285c	-0.11433479
163	0xbdb4f950	-0.08836615
164	0x3e0430be	0.12909219
165	0x3dc1d8d9	0.094651885
166	0xbd8ca1a7	-0.0686677
167	0xbd0a8aca	-0.033823766
168	0x3d80db87	0.062918715
169	0xbd8f83e6	-0.070075795
170	0xbdafe79e	-0.08589099
171	0xbd9b9dce	-0.07598458
172	0x3ddbab79	0.10726065
173	0xbd9f0926	-0.07765417
174	0x3dd6827d	0.104741074
175	0xbdd49a64	-0.1038101
176	0xbd87369f	-0.06602215
177	0xbdf22bbe	-0.118247494
178	0x3dc1e3bd	0.09467266
179	0xbe04d5a2	-0.1297212
180	0xbc16acf9	-0.009196513
181	0x3ce1bda6	0.027556252
182	0xbad380c8	-0.0016136402
183	0xbddefef5	-0.10888473
184	0x3d61166c	0.054953024
185	0x3bad6ecc	0.005292749
186	0x3e1234a5	0.14277895
187	0xbd6e17fc	-0.058128342
188	0x3d0f04ee	0.03491681
189	0x3c9c2554	0.019060768
190	0x3dffa78b	0.12483128
191	0xbe00a928	-0.12564528
192	0x3db30c3a	0.087425664
193	0xbd95c1d0	-0.073123574
194	0xbcc0606b	-0.023483476
195	0x3d6e1e39	0.05813429
196	0x3defa005	0.11700443
197	0x3ddd4aad	0.10805259
198	0xbd240959	-0.040047977
199	0x3da9c0bc	0.08288714
200	0xbc034b85	-0.008013611
201	0x3de844f4	0.11341277
202	0x3d852f64	0.0650318
203	0x3c3597ac	0.011083525
204	0x3c3ec082	0.011642577
205	0xbdb7b871	-0.08970726
206	0x3d2b243d	0.041782606
207	0x3da1e976	0.07905857
208	0xbd82295c	-0.06355545
209	0xbdd5dc99	-0.10442466
210	0xbde1dc54	-0.110283524
211	0xbdc9f088	-0.09860331
212	0xbdd759c0	-0.10515165
213	0x3d179044	0.037002817
214	0xbc90a4a8	-0.01765664
215	0x3da1685f	0.07881235
216	0x3c95ad3f	0.018271087
217	0xbdb6cb9d	-0.08925555
218	0x3c0b68c6	0.008508867
219	0x3df6e4cc	0.12055358
220	0xbd92784e	-0.071518525
221	0x3d7d7baf	0.061885532
222	0x3c9d471b	0.019198945
223	0xbdd62a92	-0.104573384
224	0x3e0954c6	0.13411245
225	0xbd4f8009	-0.050659213
226	0xbdad57de	-0.08464025
227	0xbdc9cde9	-0.09853727
228	0x3ce484a4	0.02789528
229	0x3d0c6901	0.034279827
230	0x3e03c37d	0.12867542
231	0x3de49f8e	0.11163245
232	0xbd8b6d8c	-0.06808004
233	0xbd94e22b	-0.072697006
234	0xbdd6a6d5	-0.104810394
235	0xbe033001	-0.12811281
236	0xbdd746be	-0.1051154
237	0x3cd3a67b	0.02583622
238	0x3cff56f0	0.031169385
239	0xbd14f2b6	-0.03636428
240	0x3d5c3f4e	0.05377131
241	0x3a71246a	0.00091988465
242	0xbb54f0d3	-0.0032492175
243	0x3de17e78	0.1101045
244	0xbdd6496b	-0.10463222
245	0x3d5505d4	0.05200751
246	0xbc766001	-0.015037538
247	0x3d39cb8f	0.045360144
248	0x3c15e8e3	0.009149763
249	0x3d420665	0.04736938
250	0x3d8937cd	0.06700096
251	0x3df86f41	0.12130595
252	0x3d3adc58	0.045620292
253	0x3d1b4705	0.037909526
254	0x3e10a61b	0.14125864
255	0x3dc2b2a4	0.09506729
